node {
  name: "global_step/Initializer/zeros"
  op: "Const"
  attr {
    key: "_class"
    value {
      list {
        s: "loc:@global_step"
      }
    }
  }
  attr {
    key: "_output_shapes"
    value {
      list {
        shape {
        }
      }
    }
  }
  attr {
    key: "dtype"
    value {
      type: DT_INT64
    }
  }
  attr {
    key: "value"
    value {
      tensor {
        dtype: DT_INT64
        tensor_shape {
        }
        int64_val: 0
      }
    }
  }
}
node {
  name: "global_step"
  op: "VarHandleOp"
  attr {
    key: "_class"
    value {
      list {
        s: "loc:@global_step"
      }
    }
  }
  attr {
    key: "_output_shapes"
    value {
      list {
        shape {
        }
      }
    }
  }
  attr {
    key: "allowed_devices"
    value {
      list {
      }
    }
  }
  attr {
    key: "container"
    value {
      s: ""
    }
  }
  attr {
    key: "dtype"
    value {
      type: DT_INT64
    }
  }
  attr {
    key: "shape"
    value {
      shape {
      }
    }
  }
  attr {
    key: "shared_name"
    value {
      s: "global_step"
    }
  }
}
node {
  name: "global_step/IsInitialized/VarIsInitializedOp"
  op: "VarIsInitializedOp"
  input: "global_step"
  attr {
    key: "_output_shapes"
    value {
      list {
        shape {
        }
      }
    }
  }
}
node {
  name: "global_step/Assign"
  op: "AssignVariableOp"
  input: "global_step"
  input: "global_step/Initializer/zeros"
  attr {
    key: "dtype"
    value {
      type: DT_INT64
    }
  }
}
node {
  name: "global_step/Read/ReadVariableOp"
  op: "ReadVariableOp"
  input: "global_step"
  attr {
    key: "_output_shapes"
    value {
      list {
        shape {
        }
      }
    }
  }
  attr {
    key: "dtype"
    value {
      type: DT_INT64
    }
  }
}
node {
  name: "global_step/VarIsInitializedOp"
  op: "VarIsInitializedOp"
  input: "global_step"
  attr {
    key: "_output_shapes"
    value {
      list {
        shape {
        }
      }
    }
  }
}
node {
  name: "global_step/cond"
  op: "If"
  input: "global_step/VarIsInitializedOp"
  input: "global_step"
  input: "global_step/Initializer/zeros"
  attr {
    key: "Tcond"
    value {
      type: DT_BOOL
    }
  }
  attr {
    key: "Tin"
    value {
      list {
        type: DT_RESOURCE
        type: DT_INT64
      }
    }
  }
  attr {
    key: "Tout"
    value {
      list {
        type: DT_INT64
      }
    }
  }
  attr {
    key: "_lower_using_switch_merge"
    value {
      b: true
    }
  }
  attr {
    key: "_output_shapes"
    value {
      list {
        shape {
        }
      }
    }
  }
  attr {
    key: "_read_only_resource_inputs"
    value {
      list {
        i: 1
      }
    }
  }
  attr {
    key: "else_branch"
    value {
      func {
        name: "global_step_cond_false_56"
      }
    }
  }
  attr {
    key: "output_shapes"
    value {
      list {
        shape {
        }
      }
    }
  }
  attr {
    key: "then_branch"
    value {
      func {
        name: "global_step_cond_true_55"
      }
    }
  }
}
node {
  name: "global_step/cond/Identity"
  op: "Identity"
  input: "global_step/cond"
  attr {
    key: "T"
    value {
      type: DT_INT64
    }
  }
  attr {
    key: "_output_shapes"
    value {
      list {
        shape {
        }
      }
    }
  }
}
node {
  name: "global_step/add/y"
  op: "Const"
  attr {
    key: "_output_shapes"
    value {
      list {
        shape {
        }
      }
    }
  }
  attr {
    key: "dtype"
    value {
      type: DT_INT64
    }
  }
  attr {
    key: "value"
    value {
      tensor {
        dtype: DT_INT64
        tensor_shape {
        }
        int64_val: 0
      }
    }
  }
}
node {
  name: "global_step/add"
  op: "AddV2"
  input: "global_step/cond/Identity"
  input: "global_step/add/y"
  attr {
    key: "T"
    value {
      type: DT_INT64
    }
  }
  attr {
    key: "_output_shapes"
    value {
      list {
        shape {
        }
      }
    }
  }
}
node {
  name: "normalize_element/component_0"
  op: "Const"
  device: "/device:CPU:0"
  attr {
    key: "_output_shapes"
    value {
      list {
        shape {
          dim {
            size: 5033
          }
        }
      }
    }
  }
  attr {
    key: "dtype"
    value {
      type: DT_STRING
    }
  }
  attr {
    key: "value"
    value {
      tensor {
        dtype: DT_STRING
        tensor_shape {
          dim {
            size: 5033
          }
        }
        string_val: "Ford"
        string_val: "BMW"
        string_val: "Nissan"
        string_val: "GMC"
        string_val: "Nissan"
        string_val: "Chevrolet"
        string_val: "Jeep"
        string_val: "Ford"
        string_val: "BMW"
        string_val: "Ford"
        string_val: "Dodge"
        string_val: "Toyota"
        string_val: "Chevrolet"
        string_val: "Nissan"
        string_val: "Kia"
        string_val: "Nissan"
        string_val: "Kia"
        string_val: "BMW"
        string_val: "Nissan"
        string_val: "Volkswagen"
        string_val: "Ford"
        string_val: "Dodge"
        string_val: "Ford"
        string_val: "Chevrolet"
        string_val: "Honda"
        string_val: "Toyota"
        string_val: "Toyota"
        string_val: "Ford"
        string_val: "Ford"
        string_val: "Ford"
        string_val: "Ford"
        string_val: "Nissan"
        string_val: "Jeep"
        string_val: "Lexus"
        string_val: "Ford"
        string_val: "Honda"
        string_val: "Ford"
        string_val: "Ford"
        string_val: "Toyota"
        string_val: "BMW"
        string_val: "Honda"
        string_val: "Jeep"
        string_val: "Nissan"
        string_val: "Ford"
        string_val: "Honda"
        string_val: "Ford"
        string_val: "GMC"
        string_val: "Ford"
        string_val: "Lexus"
        string_val: "Ford"
        string_val: "Honda"
        string_val: "Lexus"
        string_val: "BMW"
        string_val: "Ford"
        string_val: "Jeep"
        string_val: "Ford"
        string_val: "Ford"
        string_val: "Ford"
        string_val: "Mercedes"
        string_val: "Toyota"
        string_val: "Nissan"
        string_val: "Ram"
        string_val: "Ford"
        string_val: "Ford"
        string_val: "Dodge"
        string_val: "Ford"
        string_val: "Jeep"
        string_val: "Acura"
        string_val: "Ford"
        string_val: "Ford"
        string_val: "Honda"
        string_val: "Volkswagen"
        string_val: "Dodge"
        string_val: "Ford"
        string_val: "Mercedes"
        string_val: "Jeep"
        string_val: "Dodge"
        string_val: "Ford"
        string_val: "Ford"
        string_val: "Ford"
        string_val: "Mercedes"
        string_val: "Ford"
        string_val: "Lexus"
        string_val: "Chevrolet"
        string_val: "Scion"
        string_val: "Honda"
        string_val: "Ford"
        string_val: "Ford"
        string_val: "Honda"
        string_val: "BMW"
        string_val: "Chevrolet"
        string_val: "Chevrolet"
        string_val: "Ford"
        string_val: "Chevrolet"
        string_val: "Hyundai"
        string_val: "Chevrolet"
        string_val: "Kia"
        string_val: "Jeep"
        string_val: "BMW"
        string_val: "Jeep"
        string_val: "Ford"
        string_val: "Honda"
        string_val: "Chevrolet"
        string_val: "Chevrolet"
        string_val: "Chevrolet"
        string_val: "Ford"
        string_val: "Ford"
        string_val: "Nissan"
        string_val: "Toyota"
        string_val: "Honda"
        string_val: "Volkswagen"
        string_val: "Ford"
        string_val: "Ford"
        string_val: "Chevrolet"
        string_val: "Chevrolet"
        string_val: "Ford"
        string_val: "Jeep"
        string_val: "Ford"
        string_val: "Chevrolet"
        string_val: "Ford"
        string_val: "Chevrolet"
        string_val: "Jeep"
        string_val: "Mazda"
        string_val: "Honda"
        string_val: "Ford"
        string_val: "Ford"
        string_val: "Jeep"
        string_val: "Ford"
        string_val: "Chevrolet"
        string_val: "Ford"
        string_val: "Ford"
        string_val: "Lexus"
        string_val: "Ford"
        string_val: "Ford"
        string_val: "Mercedes"
        string_val: "Ford"
        string_val: "Toyota"
        string_val: "Nissan"
        string_val: "Chevrolet"
        string_val: "Volkswagen"
        string_val: "Ford"
        string_val: "Kia"
        string_val: "Ford"
        string_val: "Ford"
        string_val: "Honda"
        string_val: "Kia"
        string_val: "Jeep"
        string_val: "Chevrolet"
        string_val: "Ford"
        string_val: "Nissan"
        string_val: "Ford"
        string_val: "Dodge"
        string_val: "Honda"
        string_val: "Chevrolet"
        string_val: "Lexus"
        string_val: "Ford"
        string_val: "Chevrolet"
        string_val: "Lexus"
        string_val: "Chevrolet"
        string_val: "Ford"
        string_val: "Chevrolet"
        string_val: "Ford"
        string_val: "Chevrolet"
        string_val: "Chrysler"
        string_val: "Nissan"
        string_val: "Ford"
        string_val: "Nissan"
        string_val: "Nissan"
        string_val: "Jeep"
        string_val: "Chevrolet"
        string_val: "Ford"
        string_val: "Ford"
        string_val: "Ford"
        string_val: "Nissan"
        string_val: "Ford"
        string_val: "Toyota"
        string_val: "Hyundai"
        string_val: "Toyota"
        string_val: "Jeep"
        string_val: "Ford"
        string_val: "Dodge"
        string_val: "Mercedes"
        string_val: "Buick"
        string_val: "Ford"
        string_val: "Ford"
        string_val: "Toyota"
        string_val: "Ford"
        string_val: "Honda"
        string_val: "Chevrolet"
        string_val: "Toyota"
        string_val: "Ford"
        string_val: "Ford"
        string_val: "Honda"
        string_val: "Ford"
        string_val: "Jeep"
        string_val: "Ford"
        string_val: "Toyota"
        string_val: "Ford"
        string_val: "Volkswagen"
        string_val: "Honda"
        string_val: "Ford"
        string_val: "Jeep"
        string_val: "Jeep"
        string_val: "Jeep"
        string_val: "Dodge"
        string_val: "Toyota"
        string_val: "Hyundai"
        string_val: "Chevrolet"
        string_val: "Honda"
        string_val: "Chevrolet"
        string_val: "Ford"
        string_val: "Ford"
        string_val: "Subaru"
        string_val: "Ford"
        string_val: "Ford"
        string_val: "Toyota"
        string_val: "Ford"
        string_val: "Ford"
        string_val: "Nissan"
        string_val: "Nissan"
        string_val: "Chevrolet"
        string_val: "Ford"
        string_val: "Honda"
        string_val: "Chevrolet"
        string_val: "Toyota"
        string_val: "Lexus"
        string_val: "Ford"
        string_val: "Nissan"
        string_val: "Toyota"
        string_val: "Ford"
        string_val: "Chevrolet"
        string_val: "Toyota"
        string_val: "Jeep"
        string_val: "Nissan"
        string_val: "Nissan"
        string_val: "GMC"
        string_val: "Chevrolet"
        string_val: "Ford"
        string_val: "Ford"
        string_val: "INFINITI"
        string_val: "Volkswagen"
        string_val: "Ford"
        string_val: "Jeep"
        string_val: "Chevrolet"
        string_val: "Kia"
        string_val: "Ford"
        string_val: "Porsche"
        string_val: "Ford"
        string_val: "Mercedes"
        string_val: "Ford"
        string_val: "BMW"
        string_val: "Toyota"
        string_val: "Ford"
        string_val: "Volkswagen"
        string_val: "Ford"
        string_val: "Kia"
        string_val: "Honda"
        string_val: "Nissan"
        string_val: "Mercedes"
        string_val: "Ford"
        string_val: "Toyota"
        string_val: "Kia"
        string_val: "Chevrolet"
        string_val: "BMW"
        string_val: "Hyundai"
        string_val: "Honda"
        string_val: "Chevrolet"
        string_val: "Nissan"
        string_val: "Mercedes"
        string_val: "Ford"
        string_val: "Ford"
        string_val: "Ford"
        string_val: "Lexus"
        string_val: "Honda"
        string_val: "Mercedes"
        string_val: "Jeep"
        string_val: "Ford"
        string_val: "Ford"
        string_val: "Lexus"
        string_val: "Ford"
        string_val: "Volvo"
        string_val: "Ford"
        string_val: "Chevrolet"
        string_val: "Toyota"
        string_val: "Ford"
        string_val: "Chevrolet"
        string_val: "Chevrolet"
        string_val: "Ford"
        string_val: "Mercedes"
        string_val: "Toyota"
        string_val: "Jeep"
        string_val: "Honda"
        string_val: "Toyota"
        string_val: "Chevrolet"
        string_val: "Ram"
        string_val: "Hyundai"
        string_val: "Ford"
        string_val: "Chevrolet"
        string_val: "Chevrolet"
        string_val: "Jeep"
        string_val: "Toyota"
        string_val: "Nissan"
        string_val: "Mercedes"
        string_val: "Honda"
        string_val: "Toyota"
        string_val: "Chevrolet"
        string_val: "Nissan"
        string_val: "Ford"
        string_val: "Jeep"
        string_val: "Jeep"
        string_val: "Honda"
        string_val: "Toyota"
        string_val: "Mazda"
        string_val: "Ford"
        string_val: "Ford"
        string_val: "Hyundai"
        string_val: "Ford"
        string_val: "Ford"
        string_val: "Mercedes"
        string_val: "Kia"
        string_val: "Nissan"
        string_val: "Ford"
        string_val: "Ford"
        string_val: "Jeep"
        string_val: "Honda"
        string_val: "Ford"
        string_val: "Chevrolet"
        string_val: "BMW"
        string_val: "Toyota"
        string_val: "Chevrolet"
        string_val: "Jeep"
        string_val: "Ford"
        string_val: "Nissan"
        string_val: "BMW"
        string_val: "Ford"
        string_val: "Ford"
        string_val: "Ford"
        string_val: "Ford"
        string_val: "Jeep"
        string_val: "Ford"
        string_val: "Chevrolet"
        string_val: "Ford"
        string_val: "Land"
        string_val: "Volkswagen"
        string_val: "Toyota"
        string_val: "Nissan"
        string_val: "Toyota"
        string_val: "Honda"
        string_val: "Hyundai"
        string_val: "Ford"
        string_val: "Jeep"
        string_val: "Ford"
        string_val: "Volkswagen"
        string_val: "Toyota"
        string_val: "Mercedes"
        string_val: "Ford"
        string_val: "Toyota"
        string_val: "Chevrolet"
        string_val: "Ford"
        string_val: "Isuzu"
        string_val: "Chevrolet"
        string_val: "Ford"
        string_val: "Dodge"
        string_val: "Chrysler"
        string_val: "Chevrolet"
        string_val: "Ford"
        string_val: "Ford"
        string_val: "Chrysler"
        string_val: "Cadillac"
        string_val: "Chevrolet"
        string_val: "Ford"
        string_val: "Mercedes"
        string_val: "Chevrolet"
        string_val: "Ford"
        string_val: "Toyota"
        string_val: "Toyota"
        string_val: "Chrysler"
        string_val: "Mercedes"
        string_val: "Dodge"
        string_val: "Chevrolet"
        string_val: "Ford"
        string_val: "Chevrolet"
        string_val: "Nissan"
        string_val: "Honda"
        string_val: "Honda"
        string_val: "Ford"
        string_val: "Ford"
        string_val: "Kia"
        string_val: "Ford"
        string_val: "Ford"
        string_val: "Ford"
        string_val: "Chevrolet"
        string_val: "Ford"
        string_val: "Honda"
        string_val: "Volkswagen"
        string_val: "Hyundai"
        string_val: "Chevrolet"
        string_val: "Volkswagen"
        string_val: "Ford"
        string_val: "Nissan"
        string_val: "Honda"
        string_val: "Chevrolet"
        string_val: "Chevrolet"
        string_val: "Chevrolet"
        string_val: "Hyundai"
        string_val: "Chevrolet"
        string_val: "BMW"
        string_val: "Toyota"
        string_val: "Lexus"
        string_val: "Honda"
        string_val: "Jeep"
        string_val: "Chevrolet"
        string_val: "Nissan"
        string_val: "Toyota"
        string_val: "Nissan"
        string_val: "Jeep"
        string_val: "Toyota"
        string_val: "Ram"
        string_val: "Nissan"
        string_val: "Jeep"
        string_val: "Chevrolet"
        string_val: "Mercedes"
        string_val: "Ford"
        string_val: "Ford"
        string_val: "Toyota"
        string_val: "Chevrolet"
        string_val: "Lexus"
        string_val: "Ford"
        string_val: "Ford"
        string_val: "Nissan"
        string_val: "GMC"
        string_val: "Ford"
        string_val: "Honda"
        string_val: "Ford"
        string_val: "Ford"
        string_val: "Ford"
        string_val: "Ford"
        string_val: "Chevrolet"
        string_val: "Chevrolet"
        string_val: "Ford"
        string_val: "Toyota"
        string_val: "Ford"
        string_val: "Ford"
        string_val: "Chevrolet"
        string_val: "Ford"
        string_val: "Honda"
        string_val: "Ford"
        string_val: "Dodge"
        string_val: "Honda"
        string_val: "Toyota"
        string_val: "Ford"
        string_val: "Mercedes"
        string_val: "Hyundai"
        string_val: "Chevrolet"
        string_val: "Toyota"
        string_val: "Porsche"
        string_val: "Nissan"
        string_val: "Toyota"
        string_val: "Ford"
        string_val: "Lexus"
        string_val: "Jeep"
        string_val: "Ford"
        string_val: "Honda"
        string_val: "Toyota"
        string_val: "Ram"
        string_val: "Kia"
        string_val: "Chevrolet"
        string_val: "Jeep"
        string_val: "Honda"
        string_val: "Chevrolet"
        string_val: "Toyota"
        string_val: "Ford"
        string_val: "Chevrolet"
        string_val: "Chevrolet"
        string_val: "Toyota"
        string_val: "Ford"
        string_val: "Toyota"
        string_val: "Kia"
        string_val: "Honda"
        string_val: "Nissan"
        string_val: "Volkswagen"
        string_val: "Ford"
        string_val: "Ford"
        string_val: "Chrysler"
        string_val: "BMW"
        string_val: "Ford"
        string_val: "Jeep"
        string_val: "Toyota"
        string_val: "Ford"
        string_val: "Ford"
        string_val: "Ford"
        string_val: "Jeep"
        string_val: "Ford"
        string_val: "Ford"
        string_val: "Honda"
        string_val: "Ford"
        string_val: "BMW"
        string_val: "Ford"
        string_val: "Toyota"
        string_val: "Ford"
        string_val: "Ford"
        string_val: "BMW"
        string_val: "Chevrolet"
        string_val: "Dodge"
        string_val: "Ford"
        string_val: "Toyota"
        string_val: "Honda"
        string_val: "Ford"
        string_val: "Chevrolet"
        string_val: "Toyota"
        string_val: "Hyundai"
        string_val: "Chevrolet"
        string_val: "Volkswagen"
        string_val: "Ford"
        string_val: "Audi"
        string_val: "Ford"
        string_val: "Toyota"
        string_val: "Dodge"
        string_val: "Chevrolet"
        string_val: "Ford"
        string_val: "Toyota"
        string_val: "Ford"
        string_val: "Kia"
        string_val: "Ford"
        string_val: "Ford"
        string_val: "Chevrolet"
        string_val: "BMW"
        string_val: "Ford"
        string_val: "Chevrolet"
        string_val: "Chevrolet"
        string_val: "Nissan"
        string_val: "GMC"
        string_val: "Chevrolet"
        string_val: "Ford"
        string_val: "Chevrolet"
        string_val: "Toyota"
        string_val: "Ford"
        string_val: "Volkswagen"
        string_val: "Ford"
        string_val: "Nissan"
        string_val: "Hyundai"
        string_val: "Ford"
        string_val: "Toyota"
        string_val: "Toyota"
        string_val: "Hyundai"
        string_val: "Mercedes"
        string_val: "Honda"
        string_val: "Chrysler"
        string_val: "Ford"
        string_val: "Chevrolet"
        string_val: "Ford"
        string_val: "Nissan"
        string_val: "Jeep"
        string_val: "Dodge"
        string_val: "Ford"
        string_val: "Nissan"
        string_val: "Chevrolet"
        string_val: "Toyota"
        string_val: "Honda"
        string_val: "GMC"
        string_val: "Toyota"
        string_val: "Jeep"
        string_val: "Toyota"
        string_val: "Cadillac"
        string_val: "GMC"
        string_val: "Chevrolet"
        string_val: "Volkswagen"
        string_val: "Honda"
        string_val: "Toyota"
        string_val: "Nissan"
        string_val: "Jeep"
        string_val: "Ford"
        string_val: "Toyota"
        string_val: "Nissan"
        string_val: "Chevrolet"
        string_val: "Ford"
        string_val: "MINI"
        string_val: "BMW"
        string_val: "Lexus"
        string_val: "Jeep"
        string_val: "Ford"
        string_val: "Ford"
        string_val: "Ford"
        string_val: "Chevrolet"
        string_val: "Ford"
        string_val: "Ford"
        string_val: "Ford"
        string_val: "Ford"
        string_val: "Ford"
        string_val: "Jeep"
        string_val: "Ford"
        string_val: "Hyundai"
        string_val: "Ford"
        string_val: "Chevrolet"
        string_val: "Jeep"
        string_val: "Ford"
        string_val: "Toyota"
        string_val: "Toyota"
        string_val: "Mercedes"
        string_val: "Hyundai"
        string_val: "Ford"
        string_val: "Lexus"
        string_val: "Dodge"
        string_val: "Ford"
        string_val: "Toyota"
        string_val: "Chrysler"
        string_val: "Lexus"
        string_val: "Toyota"
        string_val: "Kia"
        string_val: "Mercedes"
        string_val: "Honda"
        string_val: "Ford"
        string_val: "Toyota"
        string_val: "Chrysler"
        string_val: "Mitsubishi"
        string_val: "Jeep"
        string_val: "Toyota"
        string_val: "Mercedes"
        string_val: "Nissan"
        string_val: "Ford"
        string_val: "Toyota"
        string_val: "Kia"
        string_val: "Ford"
        string_val: "Chevrolet"
        string_val: "Jeep"
        string_val: "Dodge"
        string_val: "Ford"
        string_val: "Toyota"
        string_val: "Audi"
        string_val: "Hyundai"
        string_val: "Mazda"
        string_val: "Honda"
        string_val: "Chevrolet"
        string_val: "Honda"
        string_val: "Ford"
        string_val: "Ford"
        string_val: "Jeep"
        string_val: "Chrysler"
        string_val: "Chevrolet"
        string_val: "Honda"
        string_val: "Chevrolet"
        string_val: "Chevrolet"
        string_val: "Toyota"
        string_val: "Ford"
        string_val: "Honda"
        string_val: "Nissan"
        string_val: "Volkswagen"
        string_val: "Hyundai"
        string_val: "Ford"
        string_val: "Mercedes"
        string_val: "Ford"
        string_val: "Dodge"
        string_val: "Ford"
        string_val: "Honda"
        string_val: "Nissan"
        string_val: "Chevrolet"
        string_val: "Ford"
        string_val: "Ford"
        string_val: "Chevrolet"
        string_val: "Lexus"
        string_val: "Ford"
        string_val: "Chevrolet"
        string_val: "Ford"
        string_val: "Toyota"
        string_val: "Mercedes"
        string_val: "GMC"
        string_val: "Ford"
        string_val: "Ford"
        string_val: "Jeep"
        string_val: "Ford"
        string_val: "Ford"
        string_val: "Honda"
        string_val: "Mercedes"
        string_val: "Ford"
        string_val: "Ford"
        string_val: "Dodge"
        string_val: "Ford"
        string_val: "Jeep"
        string_val: "Ford"
        string_val: "Ford"
        string_val: "Jeep"
        string_val: "Ford"
        string_val: "Ford"
        string_val: "Nissan"
        string_val: "Ford"
        string_val: "Acura"
        string_val: "Toyota"
        string_val: "Volkswagen"
        string_val: "Nissan"
        string_val: "Nissan"
        string_val: "Ford"
        string_val: "Honda"
        string_val: "Toyota"
        string_val: "Ford"
        string_val: "Ford"
        string_val: "Jeep"
        string_val: "Chevrolet"
        string_val: "Nissan"
        string_val: "Chevrolet"
        string_val: "Toyota"
        string_val: "Jeep"
        string_val: "INFINITI"
        string_val: "Ford"
        string_val: "BMW"
        string_val: "Jeep"
        string_val: "Honda"
        string_val: "Honda"
        string_val: "Toyota"
        string_val: "Jeep"
        string_val: "Chevrolet"
        string_val: "Ford"
        string_val: "Ford"
        string_val: "Chevrolet"
        string_val: "Kia"
        string_val: "Ford"
        string_val: "Honda"
        string_val: "Ford"
        string_val: "Lexus"
        string_val: "Ford"
        string_val: "Lexus"
        string_val: "Kia"
        string_val: "Chevrolet"
        string_val: "Maybach"
        string_val: "Honda"
        string_val: "Toyota"
        string_val: "Nissan"
        string_val: "Kia"
        string_val: "Hyundai"
        string_val: "Honda"
        string_val: "Ford"
        string_val: "Mercedes"
        string_val: "Chevrolet"
        string_val: "Ford"
        string_val: "Nissan"
        string_val: "BMW"
        string_val: "Ford"
        string_val: "Ford"
        string_val: "GMC"
        string_val: "Honda"
        string_val: "Volkswagen"
        string_val: "Ford"
        string_val: "Volkswagen"
        string_val: "Nissan"
        string_val: "Ford"
        string_val: "Toyota"
        string_val: "Ford"
        string_val: "Ford"
        string_val: "Ford"
        string_val: "Hyundai"
        string_val: "BMW"
        string_val: "Ford"
        string_val: "Toyota"
        string_val: "Dodge"
        string_val: "Jeep"
        string_val: "Chevrolet"
        string_val: "Toyota"
        string_val: "Honda"
        string_val: "Ford"
        string_val: "Nissan"
        string_val: "Nissan"
        string_val: "Audi"
        string_val: "Ford"
        string_val: "Toyota"
        string_val: "Ford"
        string_val: "Mercedes"
        string_val: "Nissan"
        string_val: "Kia"
        string_val: "Chevrolet"
        string_val: "Mercedes"
        string_val: "Ford"
        string_val: "Ford"
        string_val: "Ford"
        string_val: "Ford"
        string_val: "Nissan"
        string_val: "Ford"
        string_val: "Jeep"
        string_val: "Hyundai"
        string_val: "Ford"
        string_val: "Honda"
        string_val: "Jeep"
        string_val: "Dodge"
        string_val: "Ford"
        string_val: "Jeep"
        string_val: "Lexus"
        string_val: "Nissan"
        string_val: "Ford"
        string_val: "Ford"
        string_val: "Toyota"
        string_val: "Honda"
        string_val: "Honda"
        string_val: "Mercedes"
        string_val: "Jeep"
        string_val: "Toyota"
        string_val: "GMC"
        string_val: "Honda"
        string_val: "Ford"
        string_val: "Nissan"
        string_val: "Ford"
        string_val: "Ford"
        string_val: "BMW"
        string_val: "Chrysler"
        string_val: "BMW"
        string_val: "Hyundai"
        string_val: "Dodge"
        string_val: "Chevrolet"
        string_val: "Mercedes"
        string_val: "Jeep"
        string_val: "Hyundai"
        string_val: "GMC"
        string_val: "Chevrolet"
        string_val: "Ford"
        string_val: "BMW"
        string_val: "Jeep"
        string_val: "Dodge"
        string_val: "Mercedes"
        string_val: "Nissan"
        string_val: "Toyota"
        string_val: "Ford"
        string_val: "Ford"
        string_val: "Ford"
        string_val: "Jeep"
        string_val: "Hyundai"
        string_val: "Ford"
        string_val: "Honda"
        string_val: "Chevrolet"
        string_val: "Kia"
        string_val: "Honda"
        string_val: "BMW"
        string_val: "Kia"
        string_val: "Chevrolet"
        string_val: "Ford"
        string_val: "Ford"
        string_val: "Ford"
        string_val: "Volkswagen"
        string_val: "Jeep"
        string_val: "Ford"
        string_val: "Ford"
        string_val: "Jeep"
        string_val: "Honda"
        string_val: "Jeep"
        string_val: "Ford"
        string_val: "Volkswagen"
        string_val: "Mercedes"
        string_val: "Toyota"
        string_val: "GMC"
        string_val: "Ford"
        string_val: "Chevrolet"
        string_val: "Chevrolet"
        string_val: "Toyota"
        string_val: "Ford"
        string_val: "Ford"
        string_val: "Toyota"
        string_val: "Mercedes"
        string_val: "Ford"
        string_val: "Kia"
        string_val: "Toyota"
        string_val: "Toyota"
        string_val: "Kia"
        string_val: "Ford"
        string_val: "Nissan"
        string_val: "Volkswagen"
        string_val: "BMW"
        string_val: "Toyota"
        string_val: "Toyota"
        string_val: "Toyota"
        string_val: "Hyundai"
        string_val: "Mercedes"
        string_val: "Toyota"
        string_val: "Toyota"
        string_val: "Ford"
        string_val: "Ford"
        string_val: "Jeep"
        string_val: "Chevrolet"
        string_val: "Honda"
        string_val: "Ford"
        string_val: "Ford"
        string_val: "Ford"
        string_val: "Ford"
        string_val: "Ford"
        string_val: "Ford"
        string_val: "Jeep"
        string_val: "Buick"
        string_val: "Jeep"
        string_val: "Toyota"
        string_val: "Mazda"
        string_val: "Ford"
        string_val: "Chevrolet"
        string_val: "Mercedes"
        string_val: "Toyota"
        string_val: "Chevrolet"
        string_val: "Jeep"
        string_val: "Ford"
        string_val: "Ford"
        string_val: "Chrysler"
        string_val: "Toyota"
        string_val: "Dodge"
        string_val: "Ford"
        string_val: "Nissan"
        string_val: "Mercedes"
        string_val: "Ford"
        string_val: "Ford"
        string_val: "Ford"
        string_val: "Nissan"
        string_val: "Hyundai"
        string_val: "GMC"
        string_val: "Ford"
        string_val: "Land"
        string_val: "Jeep"
        string_val: "Ford"
        string_val: "INFINITI"
        string_val: "Ford"
        string_val: "Toyota"
        string_val: "Ford"
        string_val: "Ford"
        string_val: "Toyota"
        string_val: "Ford"
        string_val: "Ford"
        string_val: "Jeep"
        string_val: "Jeep"
        string_val: "Honda"
        string_val: "Toyota"
        string_val: "Toyota"
        string_val: "Ford"
        string_val: "Honda"
        string_val: "Ford"
        string_val: "Ford"
        string_val: "Ford"
        string_val: "Volkswagen"
        string_val: "Jeep"
        string_val: "Toyota"
        string_val: "Ford"
        string_val: "Ford"
        string_val: "Ford"
        string_val: "Mercedes"
        string_val: "Ford"
        string_val: "Jeep"
        string_val: "Ford"
        string_val: "Ford"
        string_val: "Ford"
        string_val: "Chevrolet"
        string_val: "Ford"
        string_val: "Mercedes"
        string_val: "Chevrolet"
        string_val: "Ford"
        string_val: "Ford"
        string_val: "Chevrolet"
        string_val: "Ford"
        string_val: "Honda"
        string_val: "Chevrolet"
        string_val: "Ford"
        string_val: "Kia"
        string_val: "Jeep"
        string_val: "Kia"
        string_val: "Volkswagen"
        string_val: "Volkswagen"
        string_val: "Mazda"
        string_val: "Ford"
        string_val: "Cadillac"
        string_val: "Toyota"
        string_val: "Chevrolet"
        string_val: "Chevrolet"
        string_val: "Jeep"
        string_val: "Ford"
        string_val: "INFINITI"
        string_val: "Toyota"
        string_val: "Ford"
        string_val: "Nissan"
        string_val: "Hyundai"
        string_val: "Nissan"
        string_val: "Ford"
        string_val: "Honda"
        string_val: "Chevrolet"
        string_val: "Jeep"
        string_val: "Chevrolet"
        string_val: "Ford"
        string_val: "Toyota"
        string_val: "Honda"
        string_val: "Honda"
        string_val: "Honda"
        string_val: "Honda"
        string_val: "Jeep"
        string_val: "Hyundai"
        string_val: "Ford"
        string_val: "Honda"
        string_val: "Chevrolet"
        string_val: "Volkswagen"
        string_val: "Land"
        string_val: "HUMMER"
        string_val: "Mazda"
        string_val: "Mitsubishi"
        string_val: "Chevrolet"
        string_val: "Ford"
        string_val: "Nissan"
        string_val: "Chrysler"
        string_val: "Mercedes"
        string_val: "Chevrolet"
        string_val: "Chevrolet"
        string_val: "Toyota"
        string_val: "Buick"
        string_val: "Chevrolet"
        string_val: "Mercedes"
        string_val: "Dodge"
        string_val: "Chevrolet"
        string_val: "Toyota"
        string_val: "Honda"
        string_val: "BMW"
        string_val: "Hyundai"
        string_val: "Ford"
        string_val: "Jeep"
        string_val: "Jeep"
        string_val: "Chevrolet"
        string_val: "Mercedes"
        string_val: "Dodge"
        string_val: "Ford"
        string_val: "Ford"
        string_val: "Jeep"
        string_val: "Chrysler"
        string_val: "Toyota"
        string_val: "Ram"
        string_val: "Ford"
        string_val: "Hyundai"
        string_val: "Ford"
        string_val: "Toyota"
        string_val: "Ford"
        string_val: "Mercedes"
        string_val: "Mercedes"
        string_val: "Mercedes"
        string_val: "Ford"
        string_val: "Chevrolet"
        string_val: "Toyota"
        string_val: "Ford"
        string_val: "Ford"
        string_val: "Ford"
        string_val: "Volkswagen"
        string_val: "Ford"
        string_val: "Subaru"
        string_val: "Mercedes"
        string_val: "GMC"
        string_val: "Chevrolet"
        string_val: "Nissan"
        string_val: "Ford"
        string_val: "Nissan"
        string_val: "Ford"
        string_val: "Ford"
        string_val: "Toyota"
        string_val: "Ford"
        string_val: "Nissan"
        string_val: "Ford"
        string_val: "Chevrolet"
        string_val: "Kia"
        string_val: "Jeep"
        string_val: "Honda"
        string_val: "Ford"
        string_val: "Honda"
        string_val: "Toyota"
        string_val: "Ford"
        string_val: "Ford"
        string_val: "Jeep"
        string_val: "Ford"
        string_val: "BMW"
        string_val: "Nissan"
        string_val: "Ford"
        string_val: "Volvo"
        string_val: "GMC"
        string_val: "Ram"
        string_val: "Toyota"
        string_val: "Chevrolet"
        string_val: "Honda"
        string_val: "Ford"
        string_val: "Ford"
        string_val: "Ford"
        string_val: "Volkswagen"
        string_val: "Jeep"
        string_val: "Jeep"
        string_val: "Nissan"
        string_val: "Ford"
        string_val: "Nissan"
        string_val: "Volkswagen"
        string_val: "Dodge"
        string_val: "Ford"
        string_val: "Toyota"
        string_val: "Chevrolet"
        string_val: "Chevrolet"
        string_val: "Chevrolet"
        string_val: "Toyota"
        string_val: "Ford"
        string_val: "Toyota"
        string_val: "Chevrolet"
        string_val: "Lexus"
        string_val: "Volkswagen"
        string_val: "Ford"
        string_val: "Chevrolet"
        string_val: "Jeep"
        string_val: "Jeep"
        string_val: "Kia"
        string_val: "Ford"
        string_val: "Toyota"
        string_val: "Kia"
        string_val: "Honda"
        string_val: "Ford"
        string_val: "Nissan"
        string_val: "Ford"
        string_val: "Ford"
        string_val: "Chevrolet"
        string_val: "Nissan"
        string_val: "Volkswagen"
        string_val: "Ford"
        string_val: "Ford"
        string_val: "Kia"
        string_val: "Mercedes"
        string_val: "Honda"
        string_val: "Lexus"
        string_val: "Toyota"
        string_val: "Jeep"
        string_val: "Chevrolet"
        string_val: "Dodge"
        string_val: "Chevrolet"
        string_val: "Mercedes"
        string_val: "Toyota"
        string_val: "BMW"
        string_val: "Ford"
        string_val: "Kia"
        string_val: "Toyota"
        string_val: "Jeep"
        string_val: "Jeep"
        string_val: "Chevrolet"
        string_val: "Kia"
        string_val: "Jeep"
        string_val: "Toyota"
        string_val: "Chevrolet"
        string_val: "BMW"
        string_val: "Ford"
        string_val: "Ford"
        string_val: "Kia"
        string_val: "Kia"
        string_val: "Nissan"
        string_val: "Jeep"
        string_val: "Toyota"
        string_val: "Volkswagen"
        string_val: "GMC"
        string_val: "Chevrolet"
        string_val: "Ford"
        string_val: "Jeep"
        string_val: "Volkswagen"
        string_val: "Ford"
        string_val: "Jeep"
        string_val: "Ford"
        string_val: "Jeep"
        string_val: "GMC"
        string_val: "Toyota"
        string_val: "Volkswagen"
        string_val: "Volkswagen"
        string_val: "Ford"
        string_val: "BMW"
        string_val: "Cadillac"
        string_val: "Nissan"
        string_val: "Jeep"
        string_val: "Toyota"
        string_val: "Ford"
        string_val: "Ford"
        string_val: "BMW"
        string_val: "Dodge"
        string_val: "Chevrolet"
        string_val: "Chevrolet"
        string_val: "Jeep"
        string_val: "Chevrolet"
        string_val: "Toyota"
        string_val: "Ford"
        string_val: "GMC"
        string_val: "Jeep"
        string_val: "Mercedes"
        string_val: "Ford"
        string_val: "Nissan"
        string_val: "Ford"
        string_val: "Jeep"
        string_val: "Ford"
        string_val: "Ford"
        string_val: "Ford"
        string_val: "Buick"
        string_val: "Nissan"
        string_val: "BMW"
        string_val: "Toyota"
        string_val: "Ford"
        string_val: "Toyota"
        string_val: "Ford"
        string_val: "Honda"
        string_val: "Ford"
        string_val: "Nissan"
        string_val: "Toyota"
        string_val: "Jeep"
        string_val: "Chevrolet"
        string_val: "Ford"
        string_val: "Honda"
        string_val: "Ford"
        string_val: "Jeep"
        string_val: "Mercedes"
        string_val: "Chevrolet"
        string_val: "Honda"
        string_val: "Chevrolet"
        string_val: "Volkswagen"
        string_val: "Ford"
        string_val: "Chevrolet"
        string_val: "Jeep"
        string_val: "Hyundai"
        string_val: "Ford"
        string_val: "Ford"
        string_val: "Jeep"
        string_val: "BMW"
        string_val: "Ford"
        string_val: "Chrysler"
        string_val: "Ford"
        string_val: "Ford"
        string_val: "Honda"
        string_val: "Ford"
        string_val: "Ford"
        string_val: "Ford"
        string_val: "Chevrolet"
        string_val: "Ford"
        string_val: "Dodge"
        string_val: "Jeep"
        string_val: "Chevrolet"
        string_val: "Ford"
        string_val: "Toyota"
        string_val: "Honda"
        string_val: "Ford"
        string_val: "Ford"
        string_val: "Chevrolet"
        string_val: "Honda"
        string_val: "Ford"
        string_val: "Nissan"
        string_val: "Ram"
        string_val: "Buick"
        string_val: "Jeep"
        string_val: "Ford"
        string_val: "Chevrolet"
        string_val: "Mercedes"
        string_val: "Porsche"
        string_val: "Ford"
        string_val: "Toyota"
        string_val: "Jeep"
        string_val: "Ford"
        string_val: "Honda"
        string_val: "Nissan"
        string_val: "Toyota"
        string_val: "Jeep"
        string_val: "Toyota"
        string_val: "Jeep"
        string_val: "Ford"
        string_val: "Mercedes"
        string_val: "Honda"
        string_val: "Chevrolet"
        string_val: "Nissan"
        string_val: "Lexus"
        string_val: "Ford"
        string_val: "GMC"
        string_val: "Chrysler"
        string_val: "Toyota"
        string_val: "Jeep"
        string_val: "Jeep"
        string_val: "Jeep"
        string_val: "Toyota"
        string_val: "Nissan"
        string_val: "Chevrolet"
        string_val: "INFINITI"
        string_val: "Mercedes"
        string_val: "BMW"
        string_val: "Jeep"
        string_val: "Jeep"
        string_val: "BMW"
        string_val: "Ford"
        string_val: "Ford"
        string_val: "Ram"
        string_val: "Honda"
        string_val: "Cadillac"
        string_val: "Ford"
        string_val: "Toyota"
        string_val: "Ford"
        string_val: "GMC"
        string_val: "Volkswagen"
        string_val: "Honda"
        string_val: "Dodge"
        string_val: "Ford"
        string_val: "Ford"
        string_val: "Ford"
        string_val: "Chevrolet"
        string_val: "Ford"
        string_val: "Chrysler"
        string_val: "Ford"
        string_val: "Ford"
        string_val: "Kia"
        string_val: "Ford"
        string_val: "Jeep"
        string_val: "Hyundai"
        string_val: "GMC"
        string_val: "Ford"
        string_val: "Lexus"
        string_val: "Chevrolet"
        string_val: "Ford"
        string_val: "Nissan"
        string_val: "Ford"
        string_val: "Ford"
        string_val: "Chevrolet"
        string_val: "Toyota"
        string_val: "Ford"
        string_val: "BMW"
        string_val: "Toyota"
        string_val: "Ford"
        string_val: "Mercedes"
        string_val: "Volkswagen"
        string_val: "Ford"
        string_val: "Nissan"
        string_val: "Honda"
        string_val: "Ford"
        string_val: "Kia"
        string_val: "Ford"
        string_val: "Ford"
        string_val: "Ford"
        string_val: "Jeep"
        string_val: "Mercedes"
        string_val: "Ford"
        string_val: "Dodge"
        string_val: "Ford"
        string_val: "Dodge"
        string_val: "Ford"
        string_val: "Nissan"
        string_val: "Nissan"
        string_val: "Toyota"
        string_val: "Toyota"
        string_val: "Ford"
        string_val: "Toyota"
        string_val: "Nissan"
        string_val: "Ford"
        string_val: "Ford"
        string_val: "Chevrolet"
        string_val: "Lexus"
        string_val: "Ford"
        string_val: "Nissan"
        string_val: "Ford"
        string_val: "Jeep"
        string_val: "Honda"
        string_val: "Ford"
        string_val: "Honda"
        string_val: "Jeep"
        string_val: "Mitsubishi"
        string_val: "Ford"
        string_val: "Chrysler"
        string_val: "Toyota"
        string_val: "Toyota"
        string_val: "Honda"
        string_val: "Ford"
        string_val: "Chevrolet"
        string_val: "Ford"
        string_val: "Chevrolet"
        string_val: "Chevrolet"
        string_val: "Nissan"
        string_val: "Lexus"
        string_val: "Kia"
        string_val: "Volkswagen"
        string_val: "Dodge"
        string_val: "Chevrolet"
        string_val: "Nissan"
        string_val: "Chevrolet"
        string_val: "Ford"
        string_val: "Jeep"
        string_val: "Nissan"
        string_val: "BMW"
        string_val: "Volkswagen"
        string_val: "Honda"
        string_val: "Chevrolet"
        string_val: "Jeep"
        string_val: "Ford"
        string_val: "Nissan"
        string_val: "Ford"
        string_val: "Ford"
        string_val: "Ford"
        string_val: "Toyota"
        string_val: "Ford"
        string_val: "Nissan"
        string_val: "Ford"
        string_val: "Mercedes"
        string_val: "Nissan"
        string_val: "Nissan"
        string_val: "GMC"
        string_val: "Toyota"
        string_val: "Honda"
        string_val: "Nissan"
        string_val: "Ford"
        string_val: "Toyota"
        string_val: "Mercedes"
        string_val: "Chevrolet"
        string_val: "Toyota"
        string_val: "Ford"
        string_val: "Ford"
        string_val: "Toyota"
        string_val: "Ford"
        string_val: "Dodge"
        string_val: "Dodge"
        string_val: "Ford"
        string_val: "Honda"
        string_val: "Ford"
        string_val: "BMW"
        string_val: "Buick"
        string_val: "Kia"
        string_val: "Ford"
        string_val: "Ford"
        string_val: "Chevrolet"
        string_val: "Ford"
        string_val: "Mercedes"
        string_val: "Kia"
        string_val: "Kia"
        string_val: "Chevrolet"
        string_val: "Mercedes"
        string_val: "Mercedes"
        string_val: "Dodge"
        string_val: "Ford"
        string_val: "Honda"
        string_val: "Mercedes"
        string_val: "Ford"
        string_val: "Jeep"
        string_val: "Chevrolet"
        string_val: "Mazda"
        string_val: "Honda"
        string_val: "Ford"
        string_val: "Toyota"
        string_val: "Toyota"
        string_val: "Jeep"
        string_val: "Toyota"
        string_val: "Toyota"
        string_val: "Ford"
        string_val: "Nissan"
        string_val: "Nissan"
        string_val: "Toyota"
        string_val: "Mercedes"
        string_val: "Toyota"
        string_val: "Toyota"
        string_val: "Ford"
        string_val: "Chevrolet"
        string_val: "Ford"
        string_val: "Chevrolet"
        string_val: "Chevrolet"
        string_val: "Jeep"
        string_val: "Ford"
        string_val: "Ford"
        string_val: "Ford"
        string_val: "Honda"
        string_val: "Dodge"
        string_val: "Kia"
        string_val: "Ford"
        string_val: "Toyota"
        string_val: "Ford"
        string_val: "Nissan"
        string_val: "Kia"
        string_val: "Ford"
        string_val: "Jeep"
        string_val: "Nissan"
        string_val: "Ford"
        string_val: "Ford"
        string_val: "Toyota"
        string_val: "Honda"
        string_val: "Chevrolet"
        string_val: "Chevrolet"
        string_val: "Chevrolet"
        string_val: "Nissan"
        string_val: "Ford"
        string_val: "Ford"
        string_val: "Honda"
        string_val: "Ford"
        string_val: "Jeep"
        string_val: "Mercedes"
        string_val: "Jeep"
        string_val: "Honda"
        string_val: "Chevrolet"
        string_val: "Chevrolet"
        string_val: "Toyota"
        string_val: "Kia"
        string_val: "Chevrolet"
        string_val: "Chevrolet"
        string_val: "Dodge"
        string_val: "Chevrolet"
        string_val: "BMW"
        string_val: "BMW"
        string_val: "Ford"
        string_val: "GMC"
        string_val: "Lexus"
        string_val: "Nissan"
        string_val: "Ford"
        string_val: "Jeep"
        string_val: "Ford"
        string_val: "Honda"
        string_val: "Ford"
        string_val: "Nissan"
        string_val: "Mercedes"
        string_val: "Nissan"
        string_val: "Nissan"
        string_val: "Toyota"
        string_val: "Ford"
        string_val: "Ford"
        string_val: "Toyota"
        string_val: "Toyota"
        string_val: "Toyota"
        string_val: "Ford"
        string_val: "Ford"
        string_val: "Ford"
        string_val: "Kia"
        string_val: "Toyota"
        string_val: "Toyota"
        string_val: "Chevrolet"
        string_val: "Ford"
        string_val: "Nissan"
        string_val: "Hyundai"
        string_val: "Ford"
        string_val: "Volkswagen"
        string_val: "Jeep"
        string_val: "Toyota"
        string_val: "GMC"
        string_val: "Chevrolet"
        string_val: "Toyota"
        string_val: "Audi"
        string_val: "Mercedes"
        string_val: "Volkswagen"
        string_val: "Ford"
        string_val: "Ford"
        string_val: "Toyota"
        string_val: "Ford"
        string_val: "BMW"
        string_val: "Honda"
        string_val: "Ford"
        string_val: "Ford"
        string_val: "Buick"
        string_val: "Subaru"
        string_val: "Hyundai"
        string_val: "Nissan"
        string_val: "Ford"
        string_val: "Chevrolet"
        string_val: "Jeep"
        string_val: "Toyota"
        string_val: "Toyota"
        string_val: "Toyota"
        string_val: "Jeep"
        string_val: "Jeep"
        string_val: "Nissan"
        string_val: "Ford"
        string_val: "Kia"
        string_val: "Nissan"
        string_val: "Chevrolet"
        string_val: "Ford"
        string_val: "Chevrolet"
        string_val: "Ford"
        string_val: "Mercedes"
        string_val: "Jeep"
        string_val: "Nissan"
        string_val: "Toyota"
        string_val: "Toyota"
        string_val: "Ford"
        string_val: "Ford"
        string_val: "Honda"
        string_val: "Chevrolet"
        string_val: "Nissan"
        string_val: "Ford"
        string_val: "Ford"
        string_val: "Ford"
        string_val: "Chevrolet"
        string_val: "Hyundai"
        string_val: "Ford"
        string_val: "Ford"
        string_val: "Nissan"
        string_val: "Ford"
        string_val: "Nissan"
        string_val: "Jeep"
        string_val: "Buick"
        string_val: "Chevrolet"
        string_val: "Toyota"
        string_val: "Chevrolet"
        string_val: "Jeep"
        string_val: "Toyota"
        string_val: "Chevrolet"
        string_val: "Ford"
        string_val: "Ford"
        string_val: "Nissan"
        string_val: "Ford"
        string_val: "Ford"
        string_val: "Ford"
        string_val: "Chevrolet"
        string_val: "Toyota"
        string_val: "Toyota"
        string_val: "Honda"
        string_val: "Chevrolet"
        string_val: "Ford"
        string_val: "Ford"
        string_val: "Cadillac"
        string_val: "Ford"
        string_val: "Ford"
        string_val: "Ford"
        string_val: "Honda"
        string_val: "Land"
        string_val: "Toyota"
        string_val: "Honda"
        string_val: "Dodge"
        string_val: "Ford"
        string_val: "Chevrolet"
        string_val: "Toyota"
        string_val: "Mercedes"
        string_val: "Ford"
        string_val: "Chevrolet"
        string_val: "Ford"
        string_val: "Chevrolet"
        string_val: "Chrysler"
        string_val: "Ford"
        string_val: "Nissan"
        string_val: "BMW"
        string_val: "Jeep"
        string_val: "Ford"
        string_val: "Ford"
        string_val: "Ford"
        string_val: "Nissan"
        string_val: "Jeep"
        string_val: "Jeep"
        string_val: "Ford"
        string_val: "Chrysler"
        string_val: "Chevrolet"
        string_val: "Hyundai"
        string_val: "Ford"
        string_val: "Jeep"
        string_val: "Kia"
        string_val: "Ford"
        string_val: "Hyundai"
        string_val: "Ford"
        string_val: "Volkswagen"
        string_val: "Hyundai"
        string_val: "Toyota"
        string_val: "Nissan"
        string_val: "Ford"
        string_val: "Toyota"
        string_val: "Nissan"
        string_val: "Jeep"
        string_val: "Dodge"
        string_val: "GMC"
        string_val: "Ford"
        string_val: "Chevrolet"
        string_val: "Ford"
        string_val: "Dodge"
        string_val: "Dodge"
        string_val: "Jeep"
        string_val: "Honda"
        string_val: "Nissan"
        string_val: "Ford"
        string_val: "Toyota"
        string_val: "Ford"
        string_val: "Jeep"
        string_val: "Toyota"
        string_val: "Ford"
        string_val: "Ford"
        string_val: "Ford"
        string_val: "Ford"
        string_val: "Ford"
        string_val: "Chevrolet"
        string_val: "Toyota"
        string_val: "Ford"
        string_val: "Honda"
        string_val: "Jeep"
        string_val: "BMW"
        string_val: "Chevrolet"
        string_val: "Ford"
        string_val: "Ford"
        string_val: "Mercedes"
        string_val: "Ford"
        string_val: "Toyota"
        string_val: "BMW"
        string_val: "Jeep"
        string_val: "Mercedes"
        string_val: "Toyota"
        string_val: "Honda"
        string_val: "Chevrolet"
        string_val: "Ford"
        string_val: "Mercedes"
        string_val: "Chevrolet"
        string_val: "Ford"
        string_val: "Kia"
        string_val: "Chevrolet"
        string_val: "Nissan"
        string_val: "Ford"
        string_val: "Jeep"
        string_val: "Mazda"
        string_val: "Ford"
        string_val: "Honda"
        string_val: "Jeep"
        string_val: "Ford"
        string_val: "Jeep"
        string_val: "Subaru"
        string_val: "Toyota"
        string_val: "Ford"
        string_val: "Chevrolet"
        string_val: "Ford"
        string_val: "Honda"
        string_val: "Ford"
        string_val: "Ford"
        string_val: "Jeep"
        string_val: "Honda"
        string_val: "Ford"
        string_val: "BMW"
        string_val: "Chevrolet"
        string_val: "Hyundai"
        string_val: "Chevrolet"
        string_val: "Mercedes"
        string_val: "Nissan"
        string_val: "Ford"
        string_val: "Ford"
        string_val: "Chevrolet"
        string_val: "Jeep"
        string_val: "Kia"
        string_val: "Ford"
        string_val: "Toyota"
        string_val: "GMC"
        string_val: "Nissan"
        string_val: "Chevrolet"
        string_val: "Toyota"
        string_val: "Toyota"
        string_val: "Toyota"
        string_val: "Chevrolet"
        string_val: "Ford"
        string_val: "Ford"
        string_val: "Jeep"
        string_val: "Ford"
        string_val: "Hyundai"
        string_val: "Toyota"
        string_val: "Toyota"
        string_val: "Ford"
        string_val: "Ford"
        string_val: "Ford"
        string_val: "Ford"
        string_val: "Ford"
        string_val: "Ford"
        string_val: "Nissan"
        string_val: "Jeep"
        string_val: "Ford"
        string_val: "Jeep"
        string_val: "Chevrolet"
        string_val: "Ford"
        string_val: "Ford"
        string_val: "Ford"
        string_val: "Porsche"
        string_val: "Mercedes"
        string_val: "Nissan"
        string_val: "Toyota"
        string_val: "Honda"
        string_val: "Ford"
        string_val: "Ford"
        string_val: "Chevrolet"
        string_val: "Jeep"
        string_val: "Hyundai"
        string_val: "Chevrolet"
        string_val: "Toyota"
        string_val: "Ford"
        string_val: "Chevrolet"
        string_val: "Nissan"
        string_val: "Chevrolet"
        string_val: "INFINITI"
        string_val: "Hyundai"
        string_val: "Ford"
        string_val: "Kia"
        string_val: "Toyota"
        string_val: "Audi"
        string_val: "Ford"
        string_val: "Toyota"
        string_val: "Ford"
        string_val: "Ford"
        string_val: "Mercedes"
        string_val: "Dodge"
        string_val: "Ford"
        string_val: "BMW"
        string_val: "Acura"
        string_val: "Toyota"
        string_val: "Ford"
        string_val: "Ford"
        string_val: "Ford"
        string_val: "Ford"
        string_val: "Ford"
        string_val: "Toyota"
        string_val: "Ford"
        string_val: "Toyota"
        string_val: "Toyota"
        string_val: "Ford"
        string_val: "Porsche"
        string_val: "Ford"
        string_val: "Jeep"
        string_val: "Ford"
        string_val: "Ford"
        string_val: "Chevrolet"
        string_val: "Mercedes"
        string_val: "Honda"
        string_val: "Honda"
        string_val: "Jeep"
        string_val: "Jeep"
        string_val: "Ford"
        string_val: "Ford"
        string_val: "Chevrolet"
        string_val: "Toyota"
        string_val: "Nissan"
        string_val: "Chevrolet"
        string_val: "Ford"
        string_val: "Honda"
        string_val: "Chevrolet"
        string_val: "Honda"
        string_val: "Ford"
        string_val: "Chevrolet"
        string_val: "Toyota"
        string_val: "Ford"
        string_val: "Jeep"
        string_val: "Chevrolet"
        string_val: "Ford"
        string_val: "Toyota"
        string_val: "Volkswagen"
        string_val: "Jeep"
        string_val: "Jeep"
        string_val: "Chevrolet"
        string_val: "Ford"
        string_val: "Toyota"
        string_val: "BMW"
        string_val: "Ford"
        string_val: "Hyundai"
        string_val: "Honda"
        string_val: "Jeep"
        string_val: "Toyota"
        string_val: "Honda"
        string_val: "Chevrolet"
        string_val: "Jeep"
        string_val: "Jeep"
        string_val: "Chevrolet"
        string_val: "Mercedes"
        string_val: "Ford"
        string_val: "Ford"
        string_val: "Jeep"
        string_val: "Jeep"
        string_val: "Toyota"
        string_val: "Dodge"
        string_val: "Nissan"
        string_val: "Chevrolet"
        string_val: "Toyota"
        string_val: "Ford"
        string_val: "Hyundai"
        string_val: "Ford"
        string_val: "Dodge"
        string_val: "Ford"
        string_val: "Toyota"
        string_val: "Volkswagen"
        string_val: "Nissan"
        string_val: "Volkswagen"
        string_val: "Jeep"
        string_val: "Jeep"
        string_val: "Ford"
        string_val: "Ford"
        string_val: "Toyota"
        string_val: "Chevrolet"
        string_val: "Ford"
        string_val: "Chevrolet"
        string_val: "Chevrolet"
        string_val: "Ford"
        string_val: "Nissan"
        string_val: "Toyota"
        string_val: "Jeep"
        string_val: "Mercedes"
        string_val: "Ford"
        string_val: "Jeep"
        string_val: "Chevrolet"
        string_val: "Chevrolet"
        string_val: "Honda"
        string_val: "Jeep"
        string_val: "Chevrolet"
        string_val: "Ford"
        string_val: "Jeep"
        string_val: "GMC"
        string_val: "Nissan"
        string_val: "Ford"
        string_val: "Ford"
        string_val: "Ford"
        string_val: "Chevrolet"
        string_val: "Toyota"
        string_val: "Ford"
        string_val: "Toyota"
        string_val: "Toyota"
        string_val: "Ford"
        string_val: "Toyota"
        string_val: "Ford"
        string_val: "Ford"
        string_val: "Ford"
        string_val: "Chevrolet"
        string_val: "Chevrolet"
        string_val: "Toyota"
        string_val: "Toyota"
        string_val: "Toyota"
        string_val: "Ford"
        string_val: "Chevrolet"
        string_val: "Toyota"
        string_val: "Hyundai"
        string_val: "Chevrolet"
        string_val: "Chevrolet"
        string_val: "Jeep"
        string_val: "Toyota"
        string_val: "BMW"
        string_val: "Chevrolet"
        string_val: "Jeep"
        string_val: "Ford"
        string_val: "Ford"
        string_val: "Toyota"
        string_val: "Ford"
        string_val: "Toyota"
        string_val: "Jeep"
        string_val: "Nissan"
        string_val: "Kia"
        string_val: "BMW"
        string_val: "Nissan"
        string_val: "Mercedes"
        string_val: "Ford"
        string_val: "Ford"
        string_val: "Nissan"
        string_val: "Chevrolet"
        string_val: "Kia"
        string_val: "Toyota"
        string_val: "Ford"
        string_val: "Toyota"
        string_val: "Chevrolet"
        string_val: "Ford"
        string_val: "Honda"
        string_val: "Toyota"
        string_val: "Ford"
        string_val: "Toyota"
        string_val: "Toyota"
        string_val: "BMW"
        string_val: "Toyota"
        string_val: "Ford"
        string_val: "Audi"
        string_val: "Chevrolet"
        string_val: "Volkswagen"
        string_val: "Ford"
        string_val: "Chevrolet"
        string_val: "Ford"
        string_val: "Toyota"
        string_val: "Ford"
        string_val: "Ford"
        string_val: "Ford"
        string_val: "Ford"
        string_val: "Chevrolet"
        string_val: "Honda"
        string_val: "Ford"
        string_val: "Toyota"
        string_val: "Ford"
        string_val: "Jeep"
        string_val: "Jeep"
        string_val: "Ford"
        string_val: "Ford"
        string_val: "Ford"
        string_val: "Jeep"
        string_val: "Jeep"
        string_val: "Chevrolet"
        string_val: "BMW"
        string_val: "Ford"
        string_val: "Ford"
        string_val: "Mercedes"
        string_val: "Chevrolet"
        string_val: "Chevrolet"
        string_val: "Ford"
        string_val: "Toyota"
        string_val: "Chevrolet"
        string_val: "GMC"
        string_val: "Chevrolet"
        string_val: "Ford"
        string_val: "Mercedes"
        string_val: "Toyota"
        string_val: "Chevrolet"
        string_val: "Chevrolet"
        string_val: "Ford"
        string_val: "Ford"
        string_val: "Kia"
        string_val: "Ford"
        string_val: "Chevrolet"
        string_val: "Mercedes"
        string_val: "Nissan"
        string_val: "Nissan"
        string_val: "Ford"
        string_val: "Mazda"
        string_val: "BMW"
        string_val: "Ford"
        string_val: "Ford"
        string_val: "Ford"
        string_val: "Ford"
        string_val: "Ford"
        string_val: "Honda"
        string_val: "Ford"
        string_val: "Chevrolet"
        string_val: "Mercedes"
        string_val: "Ram"
        string_val: "Dodge"
        string_val: "Volvo"
        string_val: "Volkswagen"
        string_val: "Ford"
        string_val: "Ram"
        string_val: "Toyota"
        string_val: "Ford"
        string_val: "Honda"
        string_val: "Chevrolet"
        string_val: "Chevrolet"
        string_val: "Toyota"
        string_val: "Ford"
        string_val: "Ford"
        string_val: "Nissan"
        string_val: "Ford"
        string_val: "Toyota"
        string_val: "Ford"
        string_val: "Jeep"
        string_val: "Toyota"
        string_val: "Nissan"
        string_val: "Ford"
        string_val: "Jeep"
        string_val: "Ford"
        string_val: "Chevrolet"
        string_val: "Ford"
        string_val: "Chevrolet"
        string_val: "Chevrolet"
        string_val: "Ford"
        string_val: "Jeep"
        string_val: "Nissan"
        string_val: "Ford"
        string_val: "Ford"
        string_val: "Lexus"
        string_val: "Ford"
        string_val: "Ford"
        string_val: "Ford"
        string_val: "Toyota"
        string_val: "Toyota"
        string_val: "Jeep"
        string_val: "Toyota"
        string_val: "Volkswagen"
        string_val: "Chevrolet"
        string_val: "Ford"
        string_val: "Ford"
        string_val: "smart"
        string_val: "BMW"
        string_val: "Mercedes"
        string_val: "Chevrolet"
        string_val: "Ford"
        string_val: "Kia"
        string_val: "Dodge"
        string_val: "Ford"
        string_val: "Ford"
        string_val: "Nissan"
        string_val: "Jeep"
        string_val: "Chevrolet"
        string_val: "Jeep"
        string_val: "Ford"
        string_val: "Ford"
        string_val: "Ford"
        string_val: "Toyota"
        string_val: "Ford"
        string_val: "Honda"
        string_val: "Mercedes"
        string_val: "Toyota"
        string_val: "Ford"
        string_val: "Ford"
        string_val: "Chevrolet"
        string_val: "Ford"
        string_val: "Toyota"
        string_val: "BMW"
        string_val: "Jeep"
        string_val: "Ford"
        string_val: "Honda"
        string_val: "Chevrolet"
        string_val: "Toyota"
        string_val: "Ford"
        string_val: "Jeep"
        string_val: "Nissan"
        string_val: "Ford"
        string_val: "Chevrolet"
        string_val: "Jeep"
        string_val: "Dodge"
        string_val: "Toyota"
        string_val: "Kia"
        string_val: "Ford"
        string_val: "Ford"
        string_val: "Kia"
        string_val: "Toyota"
        string_val: "Ford"
        string_val: "Chevrolet"
        string_val: "Ford"
        string_val: "Honda"
        string_val: "Honda"
        string_val: "Toyota"
        string_val: "Jeep"
        string_val: "Ford"
        string_val: "Nissan"
        string_val: "Ford"
        string_val: "Nissan"
        string_val: "BMW"
        string_val: "Chevrolet"
        string_val: "Chevrolet"
        string_val: "Ford"
        string_val: "Chevrolet"
        string_val: "Ford"
        string_val: "Ford"
        string_val: "Chevrolet"
        string_val: "Kia"
        string_val: "Hyundai"
        string_val: "Ford"
        string_val: "Ford"
        string_val: "Toyota"
        string_val: "Toyota"
        string_val: "Chevrolet"
        string_val: "Toyota"
        string_val: "Chevrolet"
        string_val: "Jeep"
        string_val: "Ford"
        string_val: "Toyota"
        string_val: "Honda"
        string_val: "Toyota"
        string_val: "Ford"
        string_val: "Volkswagen"
        string_val: "Ford"
        string_val: "Mercedes"
        string_val: "Toyota"
        string_val: "Ford"
        string_val: "Ford"
        string_val: "Chevrolet"
        string_val: "Ram"
        string_val: "BMW"
        string_val: "Ford"
        string_val: "Chevrolet"
        string_val: "GMC"
        string_val: "Ford"
        string_val: "Toyota"
        string_val: "Subaru"
        string_val: "Chevrolet"
        string_val: "Mercedes"
        string_val: "Mercedes"
        string_val: "Ford"
        string_val: "Volkswagen"
        string_val: "Jeep"
        string_val: "Chevrolet"
        string_val: "Ford"
        string_val: "Hyundai"
        string_val: "Chevrolet"
        string_val: "Chevrolet"
        string_val: "Nissan"
        string_val: "Ford"
        string_val: "Chevrolet"
        string_val: "Ford"
        string_val: "Nissan"
        string_val: "Dodge"
        string_val: "Toyota"
        string_val: "Toyota"
        string_val: "Acura"
        string_val: "Ford"
        string_val: "Ford"
        string_val: "Hyundai"
        string_val: "Jeep"
        string_val: "Ford"
        string_val: "Mitsubishi"
        string_val: "Jeep"
        string_val: "Chevrolet"
        string_val: "Ford"
        string_val: "Ford"
        string_val: "Ford"
        string_val: "Ford"
        string_val: "Ford"
        string_val: "Ford"
        string_val: "Mercedes"
        string_val: "Chevrolet"
        string_val: "Buick"
        string_val: "Ford"
        string_val: "Nissan"
        string_val: "Ford"
        string_val: "Jeep"
        string_val: "Jeep"
        string_val: "Chevrolet"
        string_val: "Ford"
        string_val: "Nissan"
        string_val: "Jeep"
        string_val: "Ford"
        string_val: "Ford"
        string_val: "Ford"
        string_val: "Toyota"
        string_val: "Jeep"
        string_val: "Dodge"
        string_val: "Honda"
        string_val: "Nissan"
        string_val: "Jeep"
        string_val: "Honda"
        string_val: "Ford"
        string_val: "Jeep"
        string_val: "Chevrolet"
        string_val: "Ford"
        string_val: "Honda"
        string_val: "Ford"
        string_val: "Ford"
        string_val: "Honda"
        string_val: "Toyota"
        string_val: "Honda"
        string_val: "Jeep"
        string_val: "Toyota"
        string_val: "Nissan"
        string_val: "Jeep"
        string_val: "Ford"
        string_val: "Nissan"
        string_val: "Ford"
        string_val: "Ford"
        string_val: "Ford"
        string_val: "Toyota"
        string_val: "Jeep"
        string_val: "Chevrolet"
        string_val: "Chevrolet"
        string_val: "Dodge"
        string_val: "Cadillac"
        string_val: "Kia"
        string_val: "Ford"
        string_val: "Ford"
        string_val: "Ford"
        string_val: "Ford"
        string_val: "Ford"
        string_val: "GMC"
        string_val: "Mercedes"
        string_val: "Chevrolet"
        string_val: "Mercury"
        string_val: "Toyota"
        string_val: "Nissan"
        string_val: "Honda"
        string_val: "Toyota"
        string_val: "Ford"
        string_val: "Ford"
        string_val: "Toyota"
        string_val: "Jeep"
        string_val: "Jeep"
        string_val: "Chrysler"
        string_val: "Ford"
        string_val: "Ford"
        string_val: "Ford"
        string_val: "Volkswagen"
        string_val: "Chevrolet"
        string_val: "Nissan"
        string_val: "Toyota"
        string_val: "Chevrolet"
        string_val: "Nissan"
        string_val: "Toyota"
        string_val: "Toyota"
        string_val: "Ford"
        string_val: "Toyota"
        string_val: "Toyota"
        string_val: "Nissan"
        string_val: "Chevrolet"
        string_val: "Jeep"
        string_val: "Chevrolet"
        string_val: "Jeep"
        string_val: "Toyota"
        string_val: "Ford"
        string_val: "Jeep"
        string_val: "Ford"
        string_val: "Mercedes"
        string_val: "Toyota"
        string_val: "Toyota"
        string_val: "BMW"
        string_val: "BMW"
        string_val: "Ford"
        string_val: "Honda"
        string_val: "Toyota"
        string_val: "Ford"
        string_val: "Ford"
        string_val: "Ford"
        string_val: "Scion"
        string_val: "Mercedes"
        string_val: "Toyota"
        string_val: "Ford"
        string_val: "Hyundai"
        string_val: "BMW"
        string_val: "BMW"
        string_val: "Nissan"
        string_val: "Hyundai"
        string_val: "Toyota"
        string_val: "Volkswagen"
        string_val: "Ford"
        string_val: "Audi"
        string_val: "Jeep"
        string_val: "Nissan"
        string_val: "Chevrolet"
        string_val: "Jeep"
        string_val: "Nissan"
        string_val: "BMW"
        string_val: "Ford"
        string_val: "Chevrolet"
        string_val: "Toyota"
        string_val: "Ford"
        string_val: "BMW"
        string_val: "Ford"
        string_val: "Ford"
        string_val: "Ford"
        string_val: "Jeep"
        string_val: "Mercedes"
        string_val: "Chevrolet"
        string_val: "Chevrolet"
        string_val: "Toyota"
        string_val: "Honda"
        string_val: "Ford"
        string_val: "Ford"
        string_val: "Toyota"
        string_val: "Kia"
        string_val: "GMC"
        string_val: "Ford"
        string_val: "Jeep"
        string_val: "Ford"
        string_val: "Jeep"
        string_val: "Chevrolet"
        string_val: "Jeep"
        string_val: "Ford"
        string_val: "Dodge"
        string_val: "Honda"
        string_val: "Mercedes"
        string_val: "Honda"
        string_val: "Volkswagen"
        string_val: "Mercedes"
        string_val: "Nissan"
        string_val: "Honda"
        string_val: "Nissan"
        string_val: "Chevrolet"
        string_val: "Volkswagen"
        string_val: "Chevrolet"
        string_val: "Ford"
        string_val: "Toyota"
        string_val: "Ford"
        string_val: "Ford"
        string_val: "Ford"
        string_val: "GMC"
        string_val: "Jeep"
        string_val: "Toyota"
        string_val: "Toyota"
        string_val: "Toyota"
        string_val: "Ford"
        string_val: "Nissan"
        string_val: "Kia"
        string_val: "Chrysler"
        string_val: "BMW"
        string_val: "Jeep"
        string_val: "Chevrolet"
        string_val: "Jeep"
        string_val: "Mazda"
        string_val: "Hyundai"
        string_val: "Jeep"
        string_val: "Nissan"
        string_val: "Toyota"
        string_val: "Kia"
        string_val: "GMC"
        string_val: "Chevrolet"
        string_val: "Honda"
        string_val: "Ford"
        string_val: "Chevrolet"
        string_val: "Jeep"
        string_val: "Nissan"
        string_val: "smart"
        string_val: "INFINITI"
        string_val: "Mercedes"
        string_val: "Ford"
        string_val: "Ford"
        string_val: "Mercedes"
        string_val: "Ford"
        string_val: "Kia"
        string_val: "Volkswagen"
        string_val: "Jeep"
        string_val: "Ford"
        string_val: "Toyota"
        string_val: "Jeep"
        string_val: "Ford"
        string_val: "Dodge"
        string_val: "Honda"
        string_val: "Jeep"
        string_val: "Dodge"
        string_val: "Ford"
        string_val: "Chevrolet"
        string_val: "Volkswagen"
        string_val: "Chevrolet"
        string_val: "Jeep"
        string_val: "Ford"
        string_val: "Ford"
        string_val: "Toyota"
        string_val: "Hyundai"
        string_val: "Toyota"
        string_val: "Ford"
        string_val: "Lexus"
        string_val: "Ford"
        string_val: "Toyota"
        string_val: "Ford"
        string_val: "Ford"
        string_val: "Toyota"
        string_val: "Toyota"
        string_val: "Toyota"
        string_val: "Toyota"
        string_val: "Chevrolet"
        string_val: "Ford"
        string_val: "Ford"
        string_val: "Ford"
        string_val: "Ford"
        string_val: "Ford"
        string_val: "Toyota"
        string_val: "Ford"
        string_val: "Volkswagen"
        string_val: "Mercedes"
        string_val: "Chrysler"
        string_val: "Ford"
        string_val: "Chevrolet"
        string_val: "Ford"
        string_val: "Ford"
        string_val: "Audi"
        string_val: "Nissan"
        string_val: "Ford"
        string_val: "Jeep"
        string_val: "Nissan"
        string_val: "Ford"
        string_val: "Ford"
        string_val: "Nissan"
        string_val: "Chevrolet"
        string_val: "Toyota"
        string_val: "Kia"
        string_val: "Jeep"
        string_val: "Ford"
        string_val: "Chevrolet"
        string_val: "Nissan"
        string_val: "Nissan"
        string_val: "Chevrolet"
        string_val: "Toyota"
        string_val: "Ford"
        string_val: "Nissan"
        string_val: "Jeep"
        string_val: "Honda"
        string_val: "Ford"
        string_val: "Ford"
        string_val: "GMC"
        string_val: "Ford"
        string_val: "Ford"
        string_val: "Ford"
        string_val: "Hyundai"
        string_val: "Toyota"
        string_val: "Ford"
        string_val: "Ford"
        string_val: "Nissan"
        string_val: "Chevrolet"
        string_val: "BMW"
        string_val: "Nissan"
        string_val: "Ford"
        string_val: "Mercedes"
        string_val: "Honda"
        string_val: "Ford"
        string_val: "Jeep"
        string_val: "Ford"
        string_val: "Nissan"
        string_val: "Chevrolet"
        string_val: "Ford"
        string_val: "Toyota"
        string_val: "Nissan"
        string_val: "Ford"
        string_val: "Kia"
        string_val: "Jeep"
        string_val: "Honda"
        string_val: "Nissan"
        string_val: "Ford"
        string_val: "Toyota"
        string_val: "Jeep"
        string_val: "Ford"
        string_val: "Toyota"
        string_val: "Chevrolet"
        string_val: "Hyundai"
        string_val: "Toyota"
        string_val: "Toyota"
        string_val: "Toyota"
        string_val: "Ford"
        string_val: "BMW"
        string_val: "Jeep"
        string_val: "Toyota"
        string_val: "Mercedes"
        string_val: "Chevrolet"
        string_val: "Ford"
        string_val: "Ford"
        string_val: "Chevrolet"
        string_val: "Jeep"
        string_val: "Jeep"
        string_val: "Jeep"
        string_val: "Ford"
        string_val: "Toyota"
        string_val: "Honda"
        string_val: "Ford"
        string_val: "BMW"
        string_val: "Ford"
        string_val: "Toyota"
        string_val: "Honda"
        string_val: "Ford"
        string_val: "Ford"
        string_val: "Ford"
        string_val: "Ford"
        string_val: "Honda"
        string_val: "Lexus"
        string_val: "Ford"
        string_val: "Nissan"
        string_val: "Toyota"
        string_val: "Mitsubishi"
        string_val: "Jeep"
        string_val: "Ford"
        string_val: "Ford"
        string_val: "Toyota"
        string_val: "Toyota"
        string_val: "Ford"
        string_val: "Hyundai"
        string_val: "Ford"
        string_val: "Nissan"
        string_val: "Dodge"
        string_val: "Ford"
        string_val: "Ford"
        string_val: "Ford"
        string_val: "Honda"
        string_val: "Honda"
        string_val: "Jeep"
        string_val: "Nissan"
        string_val: "GMC"
        string_val: "Ford"
        string_val: "Honda"
        string_val: "Ford"
        string_val: "BMW"
        string_val: "BMW"
        string_val: "Chevrolet"
        string_val: "Dodge"
        string_val: "Ford"
        string_val: "Ford"
        string_val: "Jeep"
        string_val: "BMW"
        string_val: "Toyota"
        string_val: "Ford"
        string_val: "Ford"
        string_val: "Jeep"
        string_val: "BMW"
        string_val: "Nissan"
        string_val: "BMW"
        string_val: "Honda"
        string_val: "Jeep"
        string_val: "Chrysler"
        string_val: "GMC"
        string_val: "Honda"
        string_val: "Nissan"
        string_val: "Jeep"
        string_val: "Mercedes"
        string_val: "Mercedes"
        string_val: "Kia"
        string_val: "Chevrolet"
        string_val: "Toyota"
        string_val: "Ford"
        string_val: "Hyundai"
        string_val: "Honda"
        string_val: "Ford"
        string_val: "Ford"
        string_val: "Ford"
        string_val: "Honda"
        string_val: "Jeep"
        string_val: "Ford"
        string_val: "Ford"
        string_val: "Ford"
        string_val: "Volkswagen"
        string_val: "Dodge"
        string_val: "Toyota"
        string_val: "Mercedes"
        string_val: "Ford"
        string_val: "Nissan"
        string_val: "Jeep"
        string_val: "Ford"
        string_val: "Ford"
        string_val: "Nissan"
        string_val: "Ford"
        string_val: "Mercedes"
        string_val: "INFINITI"
        string_val: "Chevrolet"
        string_val: "Jeep"
        string_val: "Ford"
        string_val: "Lexus"
        string_val: "Ford"
        string_val: "Chevrolet"
        string_val: "Ford"
        string_val: "BMW"
        string_val: "Toyota"
        string_val: "INFINITI"
        string_val: "Volkswagen"
        string_val: "Dodge"
        string_val: "Ford"
        string_val: "Toyota"
        string_val: "Ford"
        string_val: "Acura"
        string_val: "Mercedes"
        string_val: "Hyundai"
        string_val: "Ford"
        string_val: "Chevrolet"
        string_val: "Nissan"
        string_val: "Toyota"
        string_val: "Dodge"
        string_val: "Chevrolet"
        string_val: "Mercedes"
        string_val: "Chevrolet"
        string_val: "Chevrolet"
        string_val: "Jeep"
        string_val: "Chevrolet"
        string_val: "Toyota"
        string_val: "Ford"
        string_val: "Ford"
        string_val: "Mazda"
        string_val: "Ford"
        string_val: "Chevrolet"
        string_val: "Jeep"
        string_val: "INFINITI"
        string_val: "Ford"
        string_val: "Lincoln"
        string_val: "Ford"
        string_val: "Jeep"
        string_val: "Jeep"
        string_val: "Kia"
        string_val: "Land"
        string_val: "Ford"
        string_val: "Volkswagen"
        string_val: "GMC"
        string_val: "Ford"
        string_val: "Kia"
        string_val: "Nissan"
        string_val: "Ford"
        string_val: "Lexus"
        string_val: "Toyota"
        string_val: "Chevrolet"
        string_val: "Ford"
        string_val: "Cadillac"
        string_val: "Mercedes"
        string_val: "Toyota"
        string_val: "Chevrolet"
        string_val: "Ford"
        string_val: "Mercedes"
        string_val: "Chevrolet"
        string_val: "Porsche"
        string_val: "Ford"
        string_val: "Ford"
        string_val: "Lexus"
        string_val: "Nissan"
        string_val: "Chevrolet"
        string_val: "Ford"
        string_val: "Ford"
        string_val: "Chevrolet"
        string_val: "Ford"
        string_val: "Ford"
        string_val: "Chevrolet"
        string_val: "Chevrolet"
        string_val: "Honda"
        string_val: "Chevrolet"
        string_val: "Nissan"
        string_val: "Jeep"
        string_val: "Chevrolet"
        string_val: "Ford"
        string_val: "Chevrolet"
        string_val: "Chevrolet"
        string_val: "Jeep"
        string_val: "Mercedes"
        string_val: "Chevrolet"
        string_val: "Ford"
        string_val: "Ford"
        string_val: "Toyota"
        string_val: "Honda"
        string_val: "Ford"
        string_val: "Toyota"
        string_val: "Hyundai"
        string_val: "Jeep"
        string_val: "Toyota"
        string_val: "Toyota"
        string_val: "Lincoln"
        string_val: "Ford"
        string_val: "Chevrolet"
        string_val: "Toyota"
        string_val: "Nissan"
        string_val: "Jeep"
        string_val: "Honda"
        string_val: "Chevrolet"
        string_val: "Ford"
        string_val: "Nissan"
        string_val: "Mercedes"
        string_val: "Toyota"
        string_val: "Toyota"
        string_val: "Mercedes"
        string_val: "Ford"
        string_val: "Ford"
        string_val: "Honda"
        string_val: "Ford"
        string_val: "Kia"
        string_val: "Mercedes"
        string_val: "Ford"
        string_val: "Ford"
        string_val: "Honda"
        string_val: "Nissan"
        string_val: "BMW"
        string_val: "Chevrolet"
        string_val: "GMC"
        string_val: "Chevrolet"
        string_val: "Ford"
        string_val: "Ford"
        string_val: "Nissan"
        string_val: "Volvo"
        string_val: "Ford"
        string_val: "Kia"
        string_val: "Mercedes"
        string_val: "Toyota"
        string_val: "Ford"
        string_val: "Jeep"
        string_val: "INFINITI"
        string_val: "Chevrolet"
        string_val: "Ford"
        string_val: "Kia"
        string_val: "Volkswagen"
        string_val: "Ford"
        string_val: "Nissan"
        string_val: "Chrysler"
        string_val: "Honda"
        string_val: "BMW"
        string_val: "Chevrolet"
        string_val: "Volkswagen"
        string_val: "Chevrolet"
        string_val: "Chevrolet"
        string_val: "Volkswagen"
        string_val: "Toyota"
        string_val: "Ford"
        string_val: "BMW"
        string_val: "Dodge"
        string_val: "Toyota"
        string_val: "Toyota"
        string_val: "GMC"
        string_val: "Ford"
        string_val: "Chevrolet"
        string_val: "Kia"
        string_val: "Ford"
        string_val: "Ford"
        string_val: "Ford"
        string_val: "Nissan"
        string_val: "Ford"
        string_val: "Jeep"
        string_val: "Nissan"
        string_val: "Honda"
        string_val: "Toyota"
        string_val: "Ford"
        string_val: "Dodge"
        string_val: "Ford"
        string_val: "Toyota"
        string_val: "Jeep"
        string_val: "Ford"
        string_val: "Toyota"
        string_val: "Ford"
        string_val: "Ford"
        string_val: "Jeep"
        string_val: "BMW"
        string_val: "Jeep"
        string_val: "Ford"
        string_val: "Chevrolet"
        string_val: "Ford"
        string_val: "Ford"
        string_val: "Ford"
        string_val: "Jeep"
        string_val: "Nissan"
        string_val: "Volkswagen"
        string_val: "Ford"
        string_val: "Kia"
        string_val: "Ford"
        string_val: "Lexus"
        string_val: "Ram"
        string_val: "Hyundai"
        string_val: "Nissan"
        string_val: "INFINITI"
        string_val: "Honda"
        string_val: "Nissan"
        string_val: "Nissan"
        string_val: "Ford"
        string_val: "Ford"
        string_val: "Nissan"
        string_val: "Ford"
        string_val: "Ford"
        string_val: "Ford"
        string_val: "Ford"
        string_val: "Chevrolet"
        string_val: "Ford"
        string_val: "Ford"
        string_val: "Kia"
        string_val: "Chevrolet"
        string_val: "Ford"
        string_val: "Hyundai"
        string_val: "Chevrolet"
        string_val: "Jeep"
        string_val: "Kia"
        string_val: "Ford"
        string_val: "INFINITI"
        string_val: "Jeep"
        string_val: "Mercedes"
        string_val: "Lexus"
        string_val: "Ford"
        string_val: "Toyota"
        string_val: "Mercedes"
        string_val: "Volkswagen"
        string_val: "Ford"
        string_val: "Chevrolet"
        string_val: "Ford"
        string_val: "Toyota"
        string_val: "Ford"
        string_val: "Jeep"
        string_val: "Ford"
        string_val: "Kia"
        string_val: "Ford"
        string_val: "Ford"
        string_val: "BMW"
        string_val: "Mercedes"
        string_val: "Chevrolet"
        string_val: "Ford"
        string_val: "Honda"
        string_val: "Dodge"
        string_val: "Ford"
        string_val: "BMW"
        string_val: "Jeep"
        string_val: "Chevrolet"
        string_val: "Toyota"
        string_val: "Toyota"
        string_val: "Chevrolet"
        string_val: "Ford"
        string_val: "Ford"
        string_val: "Honda"
        string_val: "Toyota"
        string_val: "Chevrolet"
        string_val: "Mazda"
        string_val: "Ford"
        string_val: "Nissan"
        string_val: "Buick"
        string_val: "Ford"
        string_val: "GMC"
        string_val: "Toyota"
        string_val: "Volkswagen"
        string_val: "Toyota"
        string_val: "Subaru"
        string_val: "Honda"
        string_val: "Jeep"
        string_val: "Mercedes"
        string_val: "Chevrolet"
        string_val: "Mercedes"
        string_val: "Ram"
        string_val: "Chevrolet"
        string_val: "Ford"
        string_val: "Mercedes"
        string_val: "Volvo"
        string_val: "Ford"
        string_val: "Ford"
        string_val: "Jeep"
        string_val: "Nissan"
        string_val: "Nissan"
        string_val: "Ford"
        string_val: "Nissan"
        string_val: "Chevrolet"
        string_val: "Mercedes"
        string_val: "BMW"
        string_val: "Chevrolet"
        string_val: "Hyundai"
        string_val: "Ford"
        string_val: "BMW"
        string_val: "Lincoln"
        string_val: "Nissan"
        string_val: "Ford"
        string_val: "Lexus"
        string_val: "Ford"
        string_val: "Ford"
        string_val: "Toyota"
        string_val: "Jeep"
        string_val: "Jeep"
        string_val: "Nissan"
        string_val: "Dodge"
        string_val: "Ford"
        string_val: "Mercedes"
        string_val: "Ford"
        string_val: "Lincoln"
        string_val: "Toyota"
        string_val: "Pontiac"
        string_val: "Ford"
        string_val: "Honda"
        string_val: "Chevrolet"
        string_val: "Ford"
        string_val: "Toyota"
        string_val: "Ford"
        string_val: "Jeep"
        string_val: "Ford"
        string_val: "Jeep"
        string_val: "Toyota"
        string_val: "Ford"
        string_val: "Ford"
        string_val: "Mercedes"
        string_val: "Kia"
        string_val: "Subaru"
        string_val: "Chevrolet"
        string_val: "Ford"
        string_val: "Jeep"
        string_val: "Mercedes"
        string_val: "Nissan"
        string_val: "GMC"
        string_val: "Ford"
        string_val: "Toyota"
        string_val: "Honda"
        string_val: "Chevrolet"
        string_val: "Chevrolet"
        string_val: "Toyota"
        string_val: "Toyota"
        string_val: "Mercedes"
        string_val: "Ford"
        string_val: "Saturn"
        string_val: "Honda"
        string_val: "Mercedes"
        string_val: "Jeep"
        string_val: "Ford"
        string_val: "Nissan"
        string_val: "INFINITI"
        string_val: "Dodge"
        string_val: "Ford"
        string_val: "Ford"
        string_val: "Ford"
        string_val: "Ford"
        string_val: "Ford"
        string_val: "Ford"
        string_val: "Chevrolet"
        string_val: "Toyota"
        string_val: "Nissan"
        string_val: "Chevrolet"
        string_val: "Chevrolet"
        string_val: "BMW"
        string_val: "Nissan"
        string_val: "Chevrolet"
        string_val: "Nissan"
        string_val: "BMW"
        string_val: "Ford"
        string_val: "Chevrolet"
        string_val: "Dodge"
        string_val: "Ford"
        string_val: "Ford"
        string_val: "Chevrolet"
        string_val: "Ford"
        string_val: "Nissan"
        string_val: "Jeep"
        string_val: "Mercedes"
        string_val: "Ford"
        string_val: "Chevrolet"
        string_val: "Ford"
        string_val: "Ford"
        string_val: "Mercedes"
        string_val: "Nissan"
        string_val: "Nissan"
        string_val: "Ford"
        string_val: "Ford"
        string_val: "Ford"
        string_val: "Toyota"
        string_val: "Mercedes"
        string_val: "Dodge"
        string_val: "Ford"
        string_val: "Ford"
        string_val: "Chevrolet"
        string_val: "Chevrolet"
        string_val: "Toyota"
        string_val: "Ford"
        string_val: "Ford"
        string_val: "Dodge"
        string_val: "Honda"
        string_val: "Ford"
        string_val: "Honda"
        string_val: "Ford"
        string_val: "Ford"
        string_val: "Honda"
        string_val: "Jeep"
        string_val: "Kia"
        string_val: "Ford"
        string_val: "Ford"
        string_val: "Toyota"
        string_val: "Jeep"
        string_val: "Dodge"
        string_val: "Ford"
        string_val: "Ford"
        string_val: "Chevrolet"
        string_val: "Dodge"
        string_val: "Ford"
        string_val: "Ford"
        string_val: "Jeep"
        string_val: "Ford"
        string_val: "Chevrolet"
        string_val: "Jeep"
        string_val: "Toyota"
        string_val: "BMW"
        string_val: "Toyota"
        string_val: "Dodge"
        string_val: "Chevrolet"
        string_val: "Ford"
        string_val: "Kia"
        string_val: "Ford"
        string_val: "Ford"
        string_val: "Mercedes"
        string_val: "Dodge"
        string_val: "GMC"
        string_val: "Toyota"
        string_val: "Ford"
        string_val: "Honda"
        string_val: "Chevrolet"
        string_val: "Ford"
        string_val: "Mitsubishi"
        string_val: "Chevrolet"
        string_val: "Ford"
        string_val: "Dodge"
        string_val: "Ford"
        string_val: "Jeep"
        string_val: "BMW"
        string_val: "Mercedes"
        string_val: "Ford"
        string_val: "Ford"
        string_val: "INFINITI"
        string_val: "Ford"
        string_val: "Honda"
        string_val: "Ford"
        string_val: "Ford"
        string_val: "Nissan"
        string_val: "Ford"
        string_val: "Ford"
        string_val: "Toyota"
        string_val: "Ford"
        string_val: "Toyota"
        string_val: "Jeep"
        string_val: "Honda"
        string_val: "Chrysler"
        string_val: "Ford"
        string_val: "Ford"
        string_val: "Ford"
        string_val: "Toyota"
        string_val: "GMC"
        string_val: "Nissan"
        string_val: "Ford"
        string_val: "Toyota"
        string_val: "Ford"
        string_val: "Hyundai"
        string_val: "Toyota"
        string_val: "Ford"
        string_val: "Chevrolet"
        string_val: "Nissan"
        string_val: "Jeep"
        string_val: "Toyota"
        string_val: "Jeep"
        string_val: "Jeep"
        string_val: "Chevrolet"
        string_val: "Ford"
        string_val: "Ford"
        string_val: "Mercedes"
        string_val: "Chevrolet"
        string_val: "Mitsubishi"
        string_val: "BMW"
        string_val: "Chevrolet"
        string_val: "Jeep"
        string_val: "Toyota"
        string_val: "Nissan"
        string_val: "Honda"
        string_val: "Honda"
        string_val: "Ford"
        string_val: "Ford"
        string_val: "Toyota"
        string_val: "Jeep"
        string_val: "Subaru"
        string_val: "Jeep"
        string_val: "Jeep"
        string_val: "Mercedes"
        string_val: "Chevrolet"
        string_val: "GMC"
        string_val: "Ford"
        string_val: "Honda"
        string_val: "Volkswagen"
        string_val: "Honda"
        string_val: "Toyota"
        string_val: "Hyundai"
        string_val: "Mercedes"
        string_val: "Ford"
        string_val: "Ford"
        string_val: "BMW"
        string_val: "Ford"
        string_val: "Chevrolet"
        string_val: "Ford"
        string_val: "Ford"
        string_val: "Ford"
        string_val: "Chevrolet"
        string_val: "Ford"
        string_val: "Ford"
        string_val: "Jeep"
        string_val: "Chevrolet"
        string_val: "Ford"
        string_val: "Chevrolet"
        string_val: "Jeep"
        string_val: "Nissan"
        string_val: "Ford"
        string_val: "Ford"
        string_val: "Ram"
        string_val: "Kia"
        string_val: "Ford"
        string_val: "Jeep"
        string_val: "Jeep"
        string_val: "Chevrolet"
        string_val: "Lexus"
        string_val: "Toyota"
        string_val: "Ford"
        string_val: "Jeep"
        string_val: "Chevrolet"
        string_val: "Buick"
        string_val: "Mercedes"
        string_val: "Chevrolet"
        string_val: "Ford"
        string_val: "Ford"
        string_val: "Ford"
        string_val: "Chevrolet"
        string_val: "Toyota"
        string_val: "Ford"
        string_val: "Ford"
        string_val: "Ford"
        string_val: "Chevrolet"
        string_val: "Ford"
        string_val: "Dodge"
        string_val: "Ford"
        string_val: "Honda"
        string_val: "Ford"
        string_val: "Mercedes"
        string_val: "GMC"
        string_val: "Jeep"
        string_val: "Nissan"
        string_val: "Hyundai"
        string_val: "Ford"
        string_val: "Ford"
        string_val: "Volkswagen"
        string_val: "Chevrolet"
        string_val: "Ford"
        string_val: "Ford"
        string_val: "Ford"
        string_val: "Honda"
        string_val: "Mercedes"
        string_val: "Ford"
        string_val: "Chevrolet"
        string_val: "Nissan"
        string_val: "Jeep"
        string_val: "Ford"
        string_val: "Chevrolet"
        string_val: "Hyundai"
        string_val: "Ford"
        string_val: "Mercedes"
        string_val: "GMC"
        string_val: "Kia"
        string_val: "Ford"
        string_val: "Ford"
        string_val: "Toyota"
        string_val: "Ford"
        string_val: "Toyota"
        string_val: "Chevrolet"
        string_val: "Nissan"
        string_val: "MINI"
        string_val: "Chevrolet"
        string_val: "Nissan"
        string_val: "Ford"
        string_val: "Ford"
        string_val: "Chevrolet"
        string_val: "Ford"
        string_val: "Toyota"
        string_val: "Ford"
        string_val: "Ford"
        string_val: "Nissan"
        string_val: "Ford"
        string_val: "Honda"
        string_val: "Ford"
        string_val: "Ford"
        string_val: "Toyota"
        string_val: "Toyota"
        string_val: "Hyundai"
        string_val: "Jeep"
        string_val: "Nissan"
        string_val: "Honda"
        string_val: "Nissan"
        string_val: "Ford"
        string_val: "Jeep"
        string_val: "Ford"
        string_val: "Ford"
        string_val: "Chevrolet"
        string_val: "Toyota"
        string_val: "Ford"
        string_val: "Toyota"
        string_val: "Ford"
        string_val: "Volkswagen"
        string_val: "Toyota"
        string_val: "Chevrolet"
        string_val: "Ford"
        string_val: "Ford"
        string_val: "Scion"
        string_val: "Toyota"
        string_val: "Chevrolet"
        string_val: "Dodge"
        string_val: "Jeep"
        string_val: "Kia"
        string_val: "Honda"
        string_val: "Honda"
        string_val: "Mercedes"
        string_val: "Toyota"
        string_val: "Volkswagen"
        string_val: "Chevrolet"
        string_val: "Jeep"
        string_val: "Toyota"
        string_val: "Ford"
        string_val: "Jeep"
        string_val: "Volkswagen"
        string_val: "Ford"
        string_val: "Ford"
        string_val: "Mercedes"
        string_val: "Ford"
        string_val: "Ford"
        string_val: "Chevrolet"
        string_val: "Kia"
        string_val: "Jeep"
        string_val: "Ford"
        string_val: "Toyota"
        string_val: "Dodge"
        string_val: "Ford"
        string_val: "Dodge"
        string_val: "Ford"
        string_val: "Toyota"
        string_val: "Ford"
        string_val: "Ford"
        string_val: "Volkswagen"
        string_val: "Toyota"
        string_val: "Chevrolet"
        string_val: "Kia"
        string_val: "Chrysler"
        string_val: "Jeep"
        string_val: "Subaru"
        string_val: "Mercedes"
        string_val: "Chevrolet"
        string_val: "Ford"
        string_val: "Chevrolet"
        string_val: "Kia"
        string_val: "Toyota"
        string_val: "Mercedes"
        string_val: "Nissan"
        string_val: "Toyota"
        string_val: "Ford"
        string_val: "Ford"
        string_val: "Ford"
        string_val: "GMC"
        string_val: "Jeep"
        string_val: "Nissan"
        string_val: "Ford"
        string_val: "Ford"
        string_val: "Ford"
        string_val: "Volvo"
        string_val: "Honda"
        string_val: "Ford"
        string_val: "Nissan"
        string_val: "Ford"
        string_val: "Ford"
        string_val: "Ford"
        string_val: "Ford"
        string_val: "Ford"
        string_val: "Honda"
        string_val: "Chevrolet"
        string_val: "Mercury"
        string_val: "Ford"
        string_val: "Toyota"
        string_val: "Chevrolet"
        string_val: "Jeep"
        string_val: "Ford"
        string_val: "Mercedes"
        string_val: "Ford"
        string_val: "Chevrolet"
        string_val: "Chevrolet"
        string_val: "Ford"
        string_val: "Ford"
        string_val: "Ford"
        string_val: "Ford"
        string_val: "Toyota"
        string_val: "Honda"
        string_val: "Ford"
        string_val: "Ford"
        string_val: "Jeep"
        string_val: "GMC"
        string_val: "Jeep"
        string_val: "Ford"
        string_val: "Ford"
        string_val: "Mazda"
        string_val: "Ford"
        string_val: "Ford"
        string_val: "Ford"
        string_val: "Ford"
        string_val: "Chevrolet"
        string_val: "Chevrolet"
        string_val: "Toyota"
        string_val: "Mercedes"
        string_val: "Ford"
        string_val: "Ford"
        string_val: "Toyota"
        string_val: "Ford"
        string_val: "Ford"
        string_val: "Ford"
        string_val: "Ford"
        string_val: "Ford"
        string_val: "Toyota"
        string_val: "Jeep"
        string_val: "Ford"
        string_val: "Honda"
        string_val: "Mercedes"
        string_val: "Ford"
        string_val: "Ford"
        string_val: "Ford"
        string_val: "Nissan"
        string_val: "GMC"
        string_val: "Lexus"
        string_val: "Chrysler"
        string_val: "Honda"
        string_val: "Ford"
        string_val: "Chevrolet"
        string_val: "Honda"
        string_val: "Toyota"
        string_val: "GMC"
        string_val: "Ford"
        string_val: "Hyundai"
        string_val: "Toyota"
        string_val: "Chevrolet"
        string_val: "Toyota"
        string_val: "Toyota"
        string_val: "Nissan"
        string_val: "Ford"
        string_val: "Honda"
        string_val: "Toyota"
        string_val: "Ford"
        string_val: "Jeep"
        string_val: "Chevrolet"
        string_val: "BMW"
        string_val: "Volkswagen"
        string_val: "Jeep"
        string_val: "Nissan"
        string_val: "Ford"
        string_val: "Ford"
        string_val: "Nissan"
        string_val: "Ford"
        string_val: "Jeep"
        string_val: "Nissan"
        string_val: "Chevrolet"
        string_val: "Ford"
        string_val: "Nissan"
        string_val: "Ford"
        string_val: "Jeep"
        string_val: "Jeep"
        string_val: "Ford"
        string_val: "Toyota"
        string_val: "Mercedes"
        string_val: "Ford"
        string_val: "Toyota"
        string_val: "Ford"
        string_val: "Honda"
        string_val: "Honda"
        string_val: "Jeep"
        string_val: "Nissan"
        string_val: "Chevrolet"
        string_val: "Audi"
        string_val: "Chevrolet"
        string_val: "Jeep"
        string_val: "Volkswagen"
        string_val: "Honda"
        string_val: "Ford"
        string_val: "Ford"
        string_val: "Toyota"
        string_val: "Chevrolet"
        string_val: "Toyota"
        string_val: "Ford"
        string_val: "Jeep"
        string_val: "Dodge"
        string_val: "Chevrolet"
        string_val: "Ford"
        string_val: "Chrysler"
        string_val: "Ford"
        string_val: "Chevrolet"
        string_val: "Ford"
        string_val: "Honda"
        string_val: "Ford"
        string_val: "Chevrolet"
        string_val: "Ford"
        string_val: "Ford"
        string_val: "Toyota"
        string_val: "Buick"
        string_val: "Honda"
        string_val: "Ford"
        string_val: "GMC"
        string_val: "Nissan"
        string_val: "Ford"
        string_val: "Ford"
        string_val: "Ford"
        string_val: "Nissan"
        string_val: "Hyundai"
        string_val: "Ford"
        string_val: "Chevrolet"
        string_val: "BMW"
        string_val: "Volkswagen"
        string_val: "Jeep"
        string_val: "Jeep"
        string_val: "Lexus"
        string_val: "Volkswagen"
        string_val: "BMW"
        string_val: "Honda"
        string_val: "Ford"
        string_val: "Toyota"
        string_val: "Jeep"
        string_val: "Ford"
        string_val: "Mercedes"
        string_val: "Ford"
        string_val: "Jeep"
        string_val: "Chevrolet"
        string_val: "Mitsubishi"
        string_val: "Honda"
        string_val: "Hyundai"
        string_val: "Ford"
        string_val: "Chevrolet"
        string_val: "Honda"
        string_val: "Honda"
        string_val: "Porsche"
        string_val: "GMC"
        string_val: "Nissan"
        string_val: "Ford"
        string_val: "Chevrolet"
        string_val: "Ford"
        string_val: "Audi"
        string_val: "BMW"
        string_val: "Ford"
        string_val: "Chevrolet"
        string_val: "Ford"
        string_val: "Hyundai"
        string_val: "Ford"
        string_val: "Chevrolet"
        string_val: "Jeep"
        string_val: "Honda"
        string_val: "Ford"
        string_val: "Jeep"
        string_val: "Honda"
        string_val: "Ford"
        string_val: "Toyota"
        string_val: "Ford"
        string_val: "Nissan"
        string_val: "Lexus"
        string_val: "BMW"
        string_val: "Ford"
        string_val: "Honda"
        string_val: "Chrysler"
        string_val: "Lexus"
        string_val: "Ford"
        string_val: "Mercedes"
        string_val: "Volvo"
        string_val: "Chevrolet"
        string_val: "Jeep"
        string_val: "BMW"
        string_val: "Jeep"
        string_val: "Kia"
        string_val: "Honda"
        string_val: "Acura"
        string_val: "Ford"
        string_val: "Toyota"
        string_val: "Chevrolet"
        string_val: "Nissan"
        string_val: "Mercedes"
        string_val: "Jeep"
        string_val: "GMC"
        string_val: "Ford"
        string_val: "Volkswagen"
        string_val: "Chevrolet"
        string_val: "GMC"
        string_val: "Mercedes"
        string_val: "Chevrolet"
        string_val: "Ford"
        string_val: "Ford"
        string_val: "Honda"
        string_val: "Nissan"
        string_val: "Mercedes"
        string_val: "Ford"
        string_val: "Nissan"
        string_val: "Honda"
        string_val: "Toyota"
        string_val: "Ford"
        string_val: "Ford"
        string_val: "Mercedes"
        string_val: "Ford"
        string_val: "Toyota"
        string_val: "Mercedes"
        string_val: "Ford"
        string_val: "Ford"
        string_val: "Nissan"
        string_val: "Toyota"
        string_val: "Mazda"
        string_val: "Chevrolet"
        string_val: "Honda"
        string_val: "Toyota"
        string_val: "Kia"
        string_val: "Nissan"
        string_val: "Nissan"
        string_val: "Chevrolet"
        string_val: "Volkswagen"
        string_val: "Ford"
        string_val: "Chevrolet"
        string_val: "Toyota"
        string_val: "Jeep"
        string_val: "Ford"
        string_val: "Nissan"
        string_val: "Ford"
        string_val: "Ford"
        string_val: "Nissan"
        string_val: "Ford"
        string_val: "Ford"
        string_val: "Jeep"
        string_val: "Chevrolet"
        string_val: "Ford"
        string_val: "Toyota"
        string_val: "Nissan"
        string_val: "Chevrolet"
        string_val: "Ford"
        string_val: "Jeep"
        string_val: "BMW"
        string_val: "Dodge"
        string_val: "Ford"
        string_val: "Mercedes"
        string_val: "Chevrolet"
        string_val: "Ford"
        string_val: "Nissan"
        string_val: "Toyota"
        string_val: "Chevrolet"
        string_val: "Ford"
        string_val: "Ford"
        string_val: "Ford"
        string_val: "Ford"
        string_val: "Ford"
        string_val: "Ford"
        string_val: "Mercedes"
        string_val: "Chrysler"
        string_val: "Toyota"
        string_val: "Toyota"
        string_val: "Nissan"
        string_val: "Bentley"
        string_val: "Mercedes"
        string_val: "Ford"
        string_val: "Honda"
        string_val: "Ford"
        string_val: "Mercury"
        string_val: "Toyota"
        string_val: "Chevrolet"
        string_val: "Nissan"
        string_val: "Honda"
        string_val: "Toyota"
        string_val: "Ford"
        string_val: "GMC"
        string_val: "Ford"
        string_val: "Ford"
        string_val: "Ford"
        string_val: "BMW"
        string_val: "Toyota"
        string_val: "Honda"
        string_val: "Jeep"
        string_val: "Chevrolet"
        string_val: "Hyundai"
        string_val: "Ford"
        string_val: "Ford"
        string_val: "Ford"
        string_val: "Acura"
        string_val: "Honda"
        string_val: "Ford"
        string_val: "Ford"
        string_val: "Nissan"
        string_val: "Toyota"
        string_val: "Mercedes"
        string_val: "Mercedes"
        string_val: "Chevrolet"
        string_val: "Toyota"
        string_val: "Ford"
        string_val: "Jeep"
        string_val: "Chevrolet"
        string_val: "Ford"
        string_val: "Honda"
        string_val: "Jeep"
        string_val: "Hyundai"
        string_val: "Kia"
        string_val: "Jeep"
        string_val: "Chevrolet"
        string_val: "Chevrolet"
        string_val: "Ford"
        string_val: "Hyundai"
        string_val: "Ford"
        string_val: "Toyota"
        string_val: "Ford"
        string_val: "Ford"
        string_val: "Ford"
        string_val: "Chevrolet"
        string_val: "Ford"
        string_val: "Chevrolet"
        string_val: "Ford"
        string_val: "Ford"
        string_val: "Honda"
        string_val: "Ford"
        string_val: "Chevrolet"
        string_val: "Nissan"
        string_val: "Nissan"
        string_val: "Ford"
        string_val: "Ford"
        string_val: "Ford"
        string_val: "Ford"
        string_val: "Toyota"
        string_val: "Dodge"
        string_val: "Honda"
        string_val: "Honda"
        string_val: "Ford"
        string_val: "Ford"
        string_val: "Hyundai"
        string_val: "Chevrolet"
        string_val: "Ford"
        string_val: "Nissan"
        string_val: "Ford"
        string_val: "Ford"
        string_val: "Toyota"
        string_val: "Ford"
        string_val: "Dodge"
        string_val: "Chevrolet"
        string_val: "Toyota"
        string_val: "Toyota"
        string_val: "Ford"
        string_val: "Nissan"
        string_val: "Ford"
        string_val: "Chevrolet"
        string_val: "Ford"
        string_val: "Ford"
        string_val: "Mercedes"
        string_val: "Kia"
        string_val: "Chevrolet"
        string_val: "Ford"
        string_val: "Ford"
        string_val: "BMW"
        string_val: "Jeep"
        string_val: "Nissan"
        string_val: "Ford"
        string_val: "Chevrolet"
        string_val: "Jeep"
        string_val: "Nissan"
        string_val: "Chevrolet"
        string_val: "Chevrolet"
        string_val: "Hyundai"
        string_val: "Nissan"
        string_val: "Ford"
        string_val: "Ford"
        string_val: "Chevrolet"
        string_val: "Jeep"
        string_val: "Honda"
        string_val: "Hyundai"
        string_val: "Mercedes"
        string_val: "Chevrolet"
        string_val: "Kia"
        string_val: "Honda"
        string_val: "Dodge"
        string_val: "Ford"
        string_val: "Jeep"
        string_val: "Kia"
        string_val: "Ford"
        string_val: "Honda"
        string_val: "Ford"
        string_val: "Honda"
        string_val: "BMW"
        string_val: "Honda"
        string_val: "Chevrolet"
        string_val: "Chevrolet"
        string_val: "Chevrolet"
        string_val: "Ford"
        string_val: "Chevrolet"
        string_val: "Dodge"
        string_val: "Jeep"
        string_val: "Ford"
        string_val: "Chevrolet"
        string_val: "Ford"
        string_val: "Kia"
        string_val: "Chrysler"
        string_val: "Nissan"
        string_val: "Toyota"
        string_val: "Jeep"
        string_val: "Ford"
        string_val: "Jeep"
        string_val: "Kia"
        string_val: "Ford"
        string_val: "Ford"
        string_val: "Ford"
        string_val: "Chevrolet"
        string_val: "Honda"
        string_val: "Ford"
        string_val: "Dodge"
        string_val: "Chevrolet"
        string_val: "Hyundai"
        string_val: "Lexus"
        string_val: "Ford"
        string_val: "Toyota"
        string_val: "Ford"
        string_val: "Dodge"
        string_val: "Ford"
        string_val: "GMC"
        string_val: "Chevrolet"
        string_val: "Jeep"
        string_val: "Ford"
        string_val: "Ford"
        string_val: "Ford"
        string_val: "Honda"
        string_val: "GMC"
        string_val: "Nissan"
        string_val: "Chevrolet"
        string_val: "Toyota"
        string_val: "Ford"
        string_val: "Chevrolet"
        string_val: "Ford"
        string_val: "INFINITI"
        string_val: "Ford"
        string_val: "Toyota"
        string_val: "Toyota"
        string_val: "Kia"
        string_val: "Nissan"
        string_val: "Buick"
        string_val: "Toyota"
        string_val: "BMW"
        string_val: "Toyota"
        string_val: "Kia"
        string_val: "Chevrolet"
        string_val: "Nissan"
        string_val: "Toyota"
        string_val: "Chevrolet"
        string_val: "Ford"
        string_val: "Ford"
        string_val: "Chevrolet"
        string_val: "Lexus"
        string_val: "Ford"
        string_val: "Honda"
        string_val: "Ford"
        string_val: "Ford"
        string_val: "Chevrolet"
        string_val: "Ford"
        string_val: "Ford"
        string_val: "BMW"
        string_val: "Chevrolet"
        string_val: "Ford"
        string_val: "Honda"
        string_val: "Ford"
        string_val: "Ford"
        string_val: "Honda"
        string_val: "Nissan"
        string_val: "Nissan"
        string_val: "Toyota"
        string_val: "Dodge"
        string_val: "Ford"
        string_val: "Ford"
        string_val: "Toyota"
        string_val: "Toyota"
        string_val: "Ford"
        string_val: "Chrysler"
        string_val: "Nissan"
        string_val: "Lincoln"
        string_val: "Toyota"
        string_val: "Ford"
        string_val: "Chevrolet"
        string_val: "Ford"
        string_val: "Jeep"
        string_val: "Acura"
        string_val: "Toyota"
        string_val: "Nissan"
        string_val: "Chevrolet"
        string_val: "Lexus"
        string_val: "Toyota"
        string_val: "Nissan"
        string_val: "Toyota"
        string_val: "Ford"
        string_val: "Ford"
        string_val: "BMW"
        string_val: "Dodge"
        string_val: "Honda"
        string_val: "Honda"
        string_val: "Ford"
        string_val: "Ford"
        string_val: "Ford"
        string_val: "Chevrolet"
        string_val: "Chrysler"
        string_val: "Honda"
        string_val: "Honda"
        string_val: "Ford"
        string_val: "Honda"
        string_val: "Ford"
        string_val: "Ford"
        string_val: "Toyota"
        string_val: "Nissan"
        string_val: "Ford"
        string_val: "Ford"
        string_val: "Chevrolet"
        string_val: "Ford"
        string_val: "BMW"
        string_val: "Mercedes"
        string_val: "Buick"
        string_val: "Jeep"
        string_val: "Ford"
        string_val: "Jeep"
        string_val: "Ford"
        string_val: "Chevrolet"
        string_val: "Dodge"
        string_val: "Ford"
        string_val: "Ford"
        string_val: "Chevrolet"
        string_val: "Ford"
        string_val: "GMC"
        string_val: "Volkswagen"
        string_val: "BMW"
        string_val: "Honda"
        string_val: "Toyota"
        string_val: "Jeep"
        string_val: "Chevrolet"
        string_val: "Mazda"
        string_val: "Chevrolet"
        string_val: "Ford"
        string_val: "Ford"
        string_val: "Ford"
        string_val: "Scion"
        string_val: "Ford"
        string_val: "Ford"
        string_val: "Ford"
        string_val: "Ford"
        string_val: "Toyota"
        string_val: "BMW"
        string_val: "Porsche"
        string_val: "Hyundai"
        string_val: "Ford"
        string_val: "Nissan"
        string_val: "Dodge"
        string_val: "Honda"
        string_val: "Chevrolet"
        string_val: "Nissan"
        string_val: "Toyota"
        string_val: "BMW"
        string_val: "Chevrolet"
        string_val: "Jeep"
        string_val: "Ford"
        string_val: "Chrysler"
        string_val: "Ford"
        string_val: "Kia"
        string_val: "Toyota"
        string_val: "Toyota"
        string_val: "Ford"
        string_val: "Jeep"
        string_val: "Hyundai"
        string_val: "Toyota"
        string_val: "GMC"
        string_val: "Ram"
        string_val: "Toyota"
        string_val: "Acura"
        string_val: "Ford"
        string_val: "Kia"
        string_val: "Chevrolet"
        string_val: "Hyundai"
        string_val: "Nissan"
        string_val: "BMW"
        string_val: "Hyundai"
        string_val: "Ford"
        string_val: "Ford"
        string_val: "Jeep"
        string_val: "Ford"
        string_val: "Chevrolet"
        string_val: "Ford"
        string_val: "Chevrolet"
        string_val: "Volkswagen"
        string_val: "Lexus"
        string_val: "MINI"
        string_val: "Lexus"
        string_val: "Chevrolet"
        string_val: "Mercury"
        string_val: "BMW"
        string_val: "Ford"
        string_val: "Chevrolet"
        string_val: "Mercedes"
        string_val: "Volkswagen"
        string_val: "Chrysler"
        string_val: "Honda"
        string_val: "Chevrolet"
        string_val: "Nissan"
        string_val: "Toyota"
        string_val: "Ford"
        string_val: "Toyota"
        string_val: "Nissan"
        string_val: "Toyota"
        string_val: "Toyota"
        string_val: "Subaru"
        string_val: "Mercedes"
        string_val: "Ford"
        string_val: "Jeep"
        string_val: "Porsche"
        string_val: "Honda"
        string_val: "Ford"
        string_val: "Jeep"
        string_val: "Ford"
        string_val: "Toyota"
        string_val: "Toyota"
        string_val: "Chevrolet"
        string_val: "Toyota"
        string_val: "Jeep"
        string_val: "Lexus"
        string_val: "Hyundai"
        string_val: "Toyota"
        string_val: "Ford"
        string_val: "BMW"
        string_val: "Jeep"
        string_val: "Jeep"
        string_val: "Mercedes"
        string_val: "Chevrolet"
        string_val: "Mercedes"
        string_val: "Jeep"
        string_val: "Dodge"
        string_val: "Chevrolet"
        string_val: "Chevrolet"
        string_val: "Hyundai"
        string_val: "Nissan"
        string_val: "Honda"
        string_val: "Ford"
        string_val: "Mercedes"
        string_val: "Ford"
        string_val: "Jeep"
        string_val: "Toyota"
        string_val: "INFINITI"
        string_val: "Mercedes"
        string_val: "Hyundai"
        string_val: "Ford"
        string_val: "Chevrolet"
        string_val: "Honda"
        string_val: "Chevrolet"
        string_val: "Chevrolet"
        string_val: "Chevrolet"
        string_val: "Chevrolet"
        string_val: "Jeep"
        string_val: "Subaru"
        string_val: "Lexus"
        string_val: "Chevrolet"
        string_val: "Chevrolet"
        string_val: "Ford"
        string_val: "Jeep"
        string_val: "Toyota"
        string_val: "Hyundai"
        string_val: "Ford"
        string_val: "Chevrolet"
        string_val: "Chevrolet"
        string_val: "Jeep"
        string_val: "Volkswagen"
        string_val: "Toyota"
        string_val: "Nissan"
        string_val: "Ford"
        string_val: "Toyota"
        string_val: "BMW"
        string_val: "Honda"
        string_val: "Nissan"
        string_val: "Ford"
        string_val: "GMC"
        string_val: "Honda"
        string_val: "Ford"
        string_val: "Ford"
        string_val: "Jeep"
        string_val: "Hyundai"
        string_val: "Ford"
        string_val: "Chevrolet"
        string_val: "Nissan"
        string_val: "Ford"
        string_val: "Chevrolet"
        string_val: "Toyota"
        string_val: "Chrysler"
        string_val: "Toyota"
        string_val: "Ford"
        string_val: "BMW"
        string_val: "Jeep"
        string_val: "Ford"
        string_val: "Jeep"
        string_val: "Jeep"
        string_val: "Jeep"
        string_val: "Ford"
        string_val: "Mercedes"
        string_val: "Toyota"
        string_val: "Ford"
        string_val: "Ford"
        string_val: "Ford"
        string_val: "Ford"
        string_val: "Hyundai"
        string_val: "Toyota"
        string_val: "Ford"
        string_val: "Lexus"
        string_val: "Ford"
        string_val: "Ford"
        string_val: "Volkswagen"
        string_val: "Toyota"
        string_val: "Chevrolet"
        string_val: "Honda"
        string_val: "Jeep"
        string_val: "Ford"
        string_val: "Jeep"
        string_val: "Nissan"
        string_val: "Ford"
        string_val: "Chevrolet"
        string_val: "Ford"
        string_val: "Honda"
        string_val: "Chevrolet"
        string_val: "Lexus"
        string_val: "Volkswagen"
        string_val: "Hyundai"
        string_val: "Ford"
        string_val: "Nissan"
        string_val: "Ford"
        string_val: "Ford"
        string_val: "Chevrolet"
        string_val: "Toyota"
        string_val: "Jeep"
        string_val: "Ford"
        string_val: "Ford"
        string_val: "Ford"
        string_val: "Kia"
        string_val: "Ford"
        string_val: "Jeep"
        string_val: "Chevrolet"
        string_val: "Ford"
        string_val: "Jeep"
        string_val: "Ford"
        string_val: "Toyota"
        string_val: "Toyota"
        string_val: "Chevrolet"
        string_val: "Toyota"
        string_val: "Nissan"
        string_val: "Jeep"
        string_val: "Toyota"
        string_val: "Ford"
        string_val: "GMC"
        string_val: "Mercedes"
        string_val: "Honda"
        string_val: "Ford"
        string_val: "Ford"
        string_val: "Ford"
        string_val: "Mercedes"
        string_val: "Ford"
        string_val: "Honda"
        string_val: "Ford"
        string_val: "Nissan"
        string_val: "Chevrolet"
        string_val: "Ford"
        string_val: "Honda"
        string_val: "Toyota"
        string_val: "Ford"
        string_val: "Ford"
        string_val: "Toyota"
        string_val: "Ford"
        string_val: "Ford"
        string_val: "Toyota"
        string_val: "Chevrolet"
        string_val: "Chevrolet"
        string_val: "Honda"
        string_val: "Toyota"
        string_val: "Toyota"
        string_val: "Ford"
        string_val: "Ford"
        string_val: "Chevrolet"
        string_val: "Toyota"
        string_val: "Nissan"
        string_val: "Ford"
        string_val: "Toyota"
        string_val: "Buick"
        string_val: "Honda"
        string_val: "Mercedes"
        string_val: "Buick"
        string_val: "Jeep"
        string_val: "Ford"
        string_val: "Ford"
        string_val: "INFINITI"
        string_val: "Jeep"
        string_val: "Nissan"
        string_val: "Ford"
        string_val: "Mitsubishi"
        string_val: "Toyota"
        string_val: "Ford"
        string_val: "Toyota"
        string_val: "Ford"
        string_val: "Chevrolet"
        string_val: "Ford"
        string_val: "Chevrolet"
        string_val: "Chevrolet"
        string_val: "Chevrolet"
        string_val: "BMW"
        string_val: "Kia"
        string_val: "Ford"
        string_val: "Ford"
        string_val: "Toyota"
        string_val: "Toyota"
        string_val: "Jeep"
        string_val: "Ford"
        string_val: "Toyota"
        string_val: "Ford"
        string_val: "Ford"
        string_val: "Honda"
        string_val: "Ford"
        string_val: "Ford"
        string_val: "Ford"
        string_val: "Chevrolet"
        string_val: "Ford"
        string_val: "Chevrolet"
        string_val: "Ford"
        string_val: "GMC"
        string_val: "Ford"
        string_val: "Honda"
        string_val: "Toyota"
        string_val: "Jeep"
        string_val: "Volkswagen"
        string_val: "Ford"
        string_val: "Ford"
        string_val: "Ram"
        string_val: "Ford"
        string_val: "Honda"
        string_val: "Ford"
        string_val: "Jeep"
        string_val: "Ford"
        string_val: "Toyota"
        string_val: "Volkswagen"
        string_val: "Toyota"
        string_val: "Jeep"
        string_val: "Jeep"
        string_val: "Jeep"
        string_val: "Cadillac"
        string_val: "Toyota"
        string_val: "Dodge"
        string_val: "Toyota"
        string_val: "Jeep"
        string_val: "Jeep"
        string_val: "Toyota"
        string_val: "Nissan"
        string_val: "Honda"
        string_val: "Jeep"
        string_val: "Nissan"
        string_val: "Toyota"
        string_val: "Honda"
        string_val: "Toyota"
        string_val: "Honda"
        string_val: "Toyota"
        string_val: "Jeep"
        string_val: "Ford"
        string_val: "Ford"
        string_val: "Ford"
        string_val: "Ford"
        string_val: "Ford"
        string_val: "Honda"
        string_val: "Toyota"
        string_val: "Dodge"
        string_val: "Mercedes"
        string_val: "Ford"
        string_val: "Ford"
        string_val: "Ford"
        string_val: "Jeep"
        string_val: "Ford"
        string_val: "Toyota"
        string_val: "Ford"
        string_val: "Ford"
        string_val: "Chevrolet"
        string_val: "Ford"
        string_val: "Honda"
        string_val: "Toyota"
        string_val: "Ford"
        string_val: "Ford"
        string_val: "Ford"
        string_val: "Ford"
        string_val: "Ford"
        string_val: "Ford"
        string_val: "Ford"
        string_val: "Toyota"
        string_val: "Jeep"
        string_val: "Ford"
        string_val: "Jeep"
        string_val: "Nissan"
        string_val: "Ford"
        string_val: "Nissan"
        string_val: "Ford"
        string_val: "Ford"
        string_val: "Ford"
        string_val: "Jeep"
        string_val: "Ford"
        string_val: "Ford"
        string_val: "Ford"
        string_val: "Mercedes"
        string_val: "Genesis"
        string_val: "Ford"
        string_val: "Ford"
        string_val: "Toyota"
        string_val: "Chevrolet"
        string_val: "Ford"
        string_val: "Jeep"
        string_val: "GMC"
        string_val: "Jeep"
        string_val: "Nissan"
        string_val: "Ford"
        string_val: "Toyota"
        string_val: "Jeep"
        string_val: "Ford"
        string_val: "Mercedes"
        string_val: "Ford"
        string_val: "Nissan"
        string_val: "Nissan"
        string_val: "Nissan"
        string_val: "Chevrolet"
        string_val: "Ford"
        string_val: "Dodge"
        string_val: "Toyota"
        string_val: "Chevrolet"
        string_val: "Chrysler"
        string_val: "Nissan"
        string_val: "Ford"
        string_val: "Hyundai"
        string_val: "Chevrolet"
        string_val: "Chevrolet"
        string_val: "Ford"
        string_val: "Toyota"
        string_val: "Ford"
        string_val: "Toyota"
        string_val: "Hyundai"
        string_val: "Chevrolet"
        string_val: "Nissan"
        string_val: "Kia"
        string_val: "Kia"
        string_val: "Honda"
        string_val: "Ford"
        string_val: "Porsche"
        string_val: "GMC"
        string_val: "Ford"
        string_val: "Toyota"
        string_val: "Jeep"
        string_val: "Ford"
        string_val: "Ford"
        string_val: "Nissan"
        string_val: "Chrysler"
        string_val: "Jeep"
        string_val: "Jeep"
        string_val: "Chrysler"
        string_val: "Ford"
        string_val: "Ford"
        string_val: "Toyota"
        string_val: "Nissan"
        string_val: "Jeep"
        string_val: "Ford"
        string_val: "Chevrolet"
        string_val: "Ford"
        string_val: "Dodge"
        string_val: "Toyota"
        string_val: "Ford"
        string_val: "Chevrolet"
        string_val: "Ford"
        string_val: "Chevrolet"
        string_val: "Toyota"
        string_val: "BMW"
        string_val: "Chevrolet"
        string_val: "Ford"
        string_val: "Jeep"
        string_val: "Chevrolet"
        string_val: "Honda"
        string_val: "Ford"
        string_val: "Volkswagen"
        string_val: "Jeep"
        string_val: "Chevrolet"
        string_val: "Jeep"
        string_val: "Nissan"
        string_val: "Honda"
        string_val: "Hyundai"
        string_val: "Kia"
        string_val: "Ford"
        string_val: "Chevrolet"
        string_val: "Ford"
        string_val: "Ford"
        string_val: "Kia"
        string_val: "Ford"
        string_val: "Buick"
        string_val: "Hyundai"
        string_val: "Ford"
        string_val: "Ford"
        string_val: "Honda"
        string_val: "Jeep"
        string_val: "Ford"
        string_val: "Porsche"
        string_val: "Ford"
        string_val: "Ford"
        string_val: "Jeep"
        string_val: "Dodge"
        string_val: "Jeep"
        string_val: "Ford"
        string_val: "Mercedes"
        string_val: "Ford"
        string_val: "GMC"
        string_val: "Chevrolet"
        string_val: "Ford"
        string_val: "Ford"
        string_val: "Toyota"
        string_val: "Jeep"
        string_val: "INFINITI"
        string_val: "Honda"
        string_val: "Ford"
        string_val: "Ford"
        string_val: "Honda"
        string_val: "Lexus"
        string_val: "Chevrolet"
        string_val: "Ford"
        string_val: "Chevrolet"
        string_val: "Lincoln"
        string_val: "Ford"
        string_val: "Ford"
        string_val: "Ford"
        string_val: "Chrysler"
        string_val: "Volvo"
        string_val: "Toyota"
        string_val: "GMC"
        string_val: "Ford"
        string_val: "Ford"
        string_val: "Chevrolet"
        string_val: "Nissan"
        string_val: "Toyota"
        string_val: "Volkswagen"
        string_val: "Chevrolet"
        string_val: "Hyundai"
        string_val: "Ford"
        string_val: "Chevrolet"
        string_val: "Ford"
        string_val: "Chevrolet"
        string_val: "BMW"
        string_val: "Chevrolet"
        string_val: "Ford"
        string_val: "Kia"
        string_val: "Lexus"
        string_val: "Chevrolet"
        string_val: "Toyota"
        string_val: "Chevrolet"
        string_val: "Toyota"
        string_val: "Ford"
        string_val: "Toyota"
        string_val: "Chevrolet"
        string_val: "Chrysler"
        string_val: "Toyota"
        string_val: "Toyota"
        string_val: "Chevrolet"
        string_val: "Mercedes"
        string_val: "Dodge"
        string_val: "Ford"
        string_val: "Ford"
        string_val: "Ford"
        string_val: "Ford"
        string_val: "Jeep"
        string_val: "Ford"
        string_val: "Hyundai"
        string_val: "Ford"
        string_val: "Mercedes"
        string_val: "Kia"
        string_val: "Ford"
        string_val: "Lincoln"
        string_val: "Ford"
        string_val: "Dodge"
        string_val: "Toyota"
        string_val: "Honda"
        string_val: "Jeep"
        string_val: "Chevrolet"
        string_val: "Honda"
        string_val: "Toyota"
        string_val: "Nissan"
        string_val: "Toyota"
        string_val: "Ford"
        string_val: "Chevrolet"
        string_val: "Ford"
        string_val: "Nissan"
        string_val: "Chevrolet"
        string_val: "Ford"
        string_val: "Kia"
        string_val: "Chevrolet"
        string_val: "Ford"
        string_val: "Jeep"
        string_val: "Dodge"
        string_val: "Ford"
        string_val: "Ford"
        string_val: "Honda"
        string_val: "Chrysler"
        string_val: "Chevrolet"
        string_val: "Mercedes"
        string_val: "Nissan"
        string_val: "Toyota"
        string_val: "Ford"
        string_val: "Ford"
        string_val: "Kia"
        string_val: "Nissan"
        string_val: "Mercedes"
        string_val: "Honda"
        string_val: "Ford"
        string_val: "Ford"
        string_val: "Ford"
        string_val: "Toyota"
        string_val: "Nissan"
        string_val: "Ford"
        string_val: "Ford"
        string_val: "Chevrolet"
        string_val: "Kia"
        string_val: "Toyota"
        string_val: "Jeep"
        string_val: "Honda"
        string_val: "Toyota"
        string_val: "Nissan"
        string_val: "Jeep"
        string_val: "Subaru"
        string_val: "Lexus"
        string_val: "Hyundai"
        string_val: "Ford"
        string_val: "Ford"
        string_val: "Jeep"
        string_val: "Mercedes"
        string_val: "BMW"
        string_val: "Volkswagen"
        string_val: "Ram"
        string_val: "Chrysler"
        string_val: "Ford"
        string_val: "Dodge"
        string_val: "Toyota"
        string_val: "Mercedes"
        string_val: "Dodge"
        string_val: "Chevrolet"
        string_val: "Chevrolet"
        string_val: "Ford"
        string_val: "Nissan"
        string_val: "Mercedes"
        string_val: "Kia"
        string_val: "Honda"
        string_val: "Chevrolet"
        string_val: "Hyundai"
        string_val: "Ford"
        string_val: "Honda"
        string_val: "Ford"
        string_val: "Ford"
        string_val: "Honda"
        string_val: "Volkswagen"
        string_val: "Jeep"
        string_val: "Honda"
        string_val: "Toyota"
        string_val: "Ford"
        string_val: "Chevrolet"
        string_val: "Nissan"
        string_val: "Dodge"
        string_val: "Ford"
        string_val: "Ford"
        string_val: "Ford"
        string_val: "Mercedes"
        string_val: "Nissan"
        string_val: "Jeep"
        string_val: "Toyota"
        string_val: "Scion"
        string_val: "Jeep"
        string_val: "Chevrolet"
        string_val: "Chevrolet"
        string_val: "Chevrolet"
        string_val: "Toyota"
        string_val: "Toyota"
        string_val: "Toyota"
        string_val: "Kia"
        string_val: "Chevrolet"
        string_val: "Ford"
        string_val: "Ford"
        string_val: "Toyota"
        string_val: "Kia"
        string_val: "Ford"
        string_val: "Jeep"
        string_val: "Mercedes"
        string_val: "Ford"
        string_val: "Toyota"
        string_val: "Ford"
        string_val: "Honda"
        string_val: "Ford"
        string_val: "smart"
        string_val: "BMW"
        string_val: "Jeep"
        string_val: "Ford"
        string_val: "Ford"
        string_val: "Ford"
        string_val: "Ford"
        string_val: "Jeep"
        string_val: "Nissan"
        string_val: "Ford"
        string_val: "Jeep"
        string_val: "Volkswagen"
        string_val: "Ford"
        string_val: "Jeep"
        string_val: "Jeep"
        string_val: "Ford"
        string_val: "Volkswagen"
        string_val: "Ford"
        string_val: "Ford"
        string_val: "Ford"
        string_val: "Chevrolet"
        string_val: "Ford"
        string_val: "Toyota"
        string_val: "Ford"
        string_val: "Honda"
        string_val: "Nissan"
        string_val: "Ford"
        string_val: "Jeep"
        string_val: "Nissan"
        string_val: "Chevrolet"
        string_val: "Toyota"
        string_val: "Kia"
        string_val: "Volkswagen"
        string_val: "Ford"
        string_val: "Ford"
        string_val: "GMC"
        string_val: "Chevrolet"
        string_val: "Honda"
        string_val: "Toyota"
        string_val: "Chevrolet"
        string_val: "Toyota"
        string_val: "Toyota"
        string_val: "Volkswagen"
        string_val: "Chevrolet"
        string_val: "Ford"
        string_val: "Toyota"
        string_val: "BMW"
        string_val: "Mercedes"
        string_val: "Jeep"
        string_val: "Chevrolet"
        string_val: "Ford"
        string_val: "Honda"
        string_val: "Ford"
        string_val: "Chevrolet"
        string_val: "Volkswagen"
        string_val: "Nissan"
        string_val: "BMW"
        string_val: "Chevrolet"
        string_val: "Ford"
        string_val: "GMC"
        string_val: "Jeep"
        string_val: "Chevrolet"
        string_val: "Ford"
        string_val: "Jeep"
        string_val: "Ford"
        string_val: "Ford"
        string_val: "Chevrolet"
        string_val: "Ford"
        string_val: "Ford"
        string_val: "Nissan"
        string_val: "Ford"
        string_val: "Ford"
        string_val: "Ford"
        string_val: "Chevrolet"
        string_val: "Ford"
        string_val: "Dodge"
        string_val: "Nissan"
        string_val: "Chevrolet"
        string_val: "Ford"
        string_val: "Ford"
        string_val: "Toyota"
        string_val: "Jeep"
        string_val: "Nissan"
        string_val: "BMW"
        string_val: "Ford"
        string_val: "GMC"
        string_val: "Ford"
        string_val: "Dodge"
        string_val: "Ford"
        string_val: "Ford"
        string_val: "Kia"
        string_val: "GMC"
        string_val: "Toyota"
        string_val: "Toyota"
        string_val: "Nissan"
        string_val: "Dodge"
        string_val: "Toyota"
        string_val: "Jeep"
        string_val: "Jeep"
        string_val: "Nissan"
        string_val: "Honda"
        string_val: "Land"
        string_val: "Toyota"
        string_val: "Honda"
        string_val: "Ford"
        string_val: "Chevrolet"
        string_val: "Ford"
        string_val: "Lexus"
        string_val: "Toyota"
        string_val: "Toyota"
        string_val: "Dodge"
        string_val: "Nissan"
        string_val: "Ford"
        string_val: "Chevrolet"
        string_val: "Ford"
        string_val: "INFINITI"
        string_val: "Jeep"
        string_val: "Toyota"
        string_val: "Toyota"
        string_val: "Buick"
        string_val: "Nissan"
        string_val: "Ford"
        string_val: "Ford"
        string_val: "Ford"
        string_val: "Mercedes"
        string_val: "Ford"
        string_val: "Ram"
        string_val: "Mercedes"
        string_val: "Toyota"
        string_val: "Ford"
        string_val: "Jeep"
        string_val: "Chevrolet"
        string_val: "Nissan"
        string_val: "INFINITI"
        string_val: "Ford"
        string_val: "Chevrolet"
        string_val: "Nissan"
        string_val: "Honda"
        string_val: "Ford"
        string_val: "Mercedes"
        string_val: "Jeep"
        string_val: "Ford"
        string_val: "Nissan"
        string_val: "Chevrolet"
        string_val: "Chevrolet"
        string_val: "Ford"
        string_val: "Ford"
        string_val: "Ford"
        string_val: "Ford"
        string_val: "Ford"
        string_val: "Chrysler"
        string_val: "Jaguar"
        string_val: "Ford"
        string_val: "Ford"
        string_val: "Ford"
        string_val: "Mercedes"
        string_val: "Jeep"
        string_val: "Mazda"
        string_val: "Ford"
        string_val: "Toyota"
        string_val: "Ford"
        string_val: "Chevrolet"
        string_val: "Ford"
        string_val: "Chevrolet"
        string_val: "Ford"
        string_val: "Jeep"
        string_val: "Chevrolet"
        string_val: "BMW"
        string_val: "Ford"
        string_val: "Nissan"
        string_val: "Kia"
        string_val: "Ford"
        string_val: "Chevrolet"
        string_val: "Ford"
        string_val: "Kia"
        string_val: "Hyundai"
        string_val: "Ford"
        string_val: "Jeep"
        string_val: "Lexus"
        string_val: "Ford"
        string_val: "Mercedes"
        string_val: "Mercedes"
        string_val: "Jeep"
        string_val: "Chevrolet"
        string_val: "Ford"
        string_val: "Nissan"
        string_val: "Chevrolet"
        string_val: "Mercedes"
        string_val: "Ford"
        string_val: "GMC"
        string_val: "Land"
        string_val: "Ford"
        string_val: "Hyundai"
        string_val: "Jeep"
        string_val: "Ford"
        string_val: "Toyota"
        string_val: "Volkswagen"
        string_val: "Ford"
        string_val: "Mercedes"
        string_val: "Dodge"
        string_val: "Ford"
        string_val: "Chevrolet"
        string_val: "Ford"
        string_val: "Toyota"
        string_val: "Chevrolet"
        string_val: "Kia"
        string_val: "Chevrolet"
        string_val: "Mitsubishi"
        string_val: "Hyundai"
        string_val: "Ford"
        string_val: "Ford"
        string_val: "Chevrolet"
        string_val: "Mercedes"
        string_val: "Nissan"
        string_val: "BMW"
        string_val: "Chevrolet"
        string_val: "Jeep"
        string_val: "Chevrolet"
        string_val: "Honda"
        string_val: "Ford"
        string_val: "Ford"
        string_val: "Chevrolet"
        string_val: "Nissan"
        string_val: "Ford"
        string_val: "Honda"
        string_val: "Honda"
        string_val: "GMC"
        string_val: "Chevrolet"
        string_val: "Nissan"
        string_val: "Chevrolet"
        string_val: "Ford"
        string_val: "Ford"
        string_val: "Ford"
        string_val: "Ford"
        string_val: "Chevrolet"
        string_val: "Mercedes"
        string_val: "Toyota"
        string_val: "Mercedes"
        string_val: "Honda"
        string_val: "Ford"
        string_val: "Volkswagen"
        string_val: "Nissan"
        string_val: "Ford"
        string_val: "Lexus"
        string_val: "Ford"
        string_val: "Ford"
        string_val: "Volkswagen"
        string_val: "Toyota"
        string_val: "Toyota"
        string_val: "Ford"
        string_val: "Honda"
        string_val: "Ford"
        string_val: "Honda"
        string_val: "Nissan"
        string_val: "Chevrolet"
        string_val: "Ford"
        string_val: "Hyundai"
        string_val: "Ford"
        string_val: "Ford"
        string_val: "Chevrolet"
        string_val: "Toyota"
        string_val: "Aston"
        string_val: "Jeep"
        string_val: "Jeep"
        string_val: "Chevrolet"
        string_val: "Ford"
        string_val: "Honda"
        string_val: "Ford"
        string_val: "Ford"
        string_val: "Jeep"
        string_val: "Jeep"
        string_val: "Ford"
        string_val: "Ford"
        string_val: "Ford"
        string_val: "Ford"
        string_val: "Nissan"
        string_val: "Ford"
        string_val: "Ford"
        string_val: "Chevrolet"
        string_val: "Ford"
        string_val: "Nissan"
        string_val: "Ford"
        string_val: "Ford"
        string_val: "Toyota"
        string_val: "Chevrolet"
        string_val: "Ford"
        string_val: "Mercedes"
        string_val: "Toyota"
        string_val: "Lexus"
        string_val: "Honda"
        string_val: "Nissan"
        string_val: "Ford"
        string_val: "Ford"
        string_val: "Ford"
        string_val: "Ford"
        string_val: "Chevrolet"
        string_val: "Ford"
        string_val: "Kia"
        string_val: "Honda"
        string_val: "GMC"
        string_val: "Chevrolet"
        string_val: "Toyota"
        string_val: "Chevrolet"
        string_val: "Chevrolet"
        string_val: "Chevrolet"
        string_val: "Hyundai"
        string_val: "Ford"
        string_val: "Ford"
        string_val: "Hyundai"
        string_val: "Mercedes"
        string_val: "Volkswagen"
        string_val: "Ford"
        string_val: "Lexus"
        string_val: "Ford"
        string_val: "Dodge"
        string_val: "Ford"
        string_val: "Ford"
        string_val: "Ford"
        string_val: "INFINITI"
        string_val: "Chevrolet"
        string_val: "Ford"
        string_val: "Jeep"
        string_val: "Dodge"
        string_val: "Toyota"
        string_val: "Nissan"
        string_val: "Chevrolet"
        string_val: "Mercedes"
        string_val: "Ford"
        string_val: "Jeep"
        string_val: "Ford"
        string_val: "Jeep"
        string_val: "Ford"
        string_val: "Chevrolet"
        string_val: "Ford"
        string_val: "Nissan"
        string_val: "Jeep"
        string_val: "Ford"
        string_val: "Ford"
        string_val: "Ford"
        string_val: "Ford"
        string_val: "Toyota"
        string_val: "Chevrolet"
        string_val: "Ford"
        string_val: "Honda"
        string_val: "Toyota"
        string_val: "Ford"
        string_val: "Toyota"
        string_val: "Kia"
        string_val: "Nissan"
        string_val: "Toyota"
        string_val: "Ford"
        string_val: "Ford"
        string_val: "Jeep"
        string_val: "Ford"
        string_val: "Toyota"
        string_val: "Toyota"
        string_val: "Dodge"
        string_val: "Jeep"
        string_val: "Chevrolet"
        string_val: "Ford"
        string_val: "Toyota"
        string_val: "Mercedes"
        string_val: "Chevrolet"
        string_val: "Ford"
        string_val: "Toyota"
        string_val: "Ford"
        string_val: "Honda"
        string_val: "Chevrolet"
        string_val: "Ford"
        string_val: "Ford"
        string_val: "Jeep"
        string_val: "Chevrolet"
        string_val: "Ford"
        string_val: "Chevrolet"
        string_val: "Mercedes"
        string_val: "Chevrolet"
        string_val: "Ford"
        string_val: "Mercedes"
        string_val: "Toyota"
        string_val: "Ford"
        string_val: "Ford"
        string_val: "Toyota"
        string_val: "Ford"
        string_val: "BMW"
        string_val: "Nissan"
        string_val: "Jeep"
        string_val: "Ford"
        string_val: "Ford"
        string_val: "Honda"
        string_val: "Ford"
        string_val: "Honda"
        string_val: "Dodge"
        string_val: "Volkswagen"
        string_val: "Ford"
        string_val: "Honda"
        string_val: "Ford"
        string_val: "Ford"
        string_val: "Honda"
        string_val: "Chevrolet"
        string_val: "Ford"
        string_val: "Ford"
        string_val: "Mercedes"
        string_val: "Ford"
        string_val: "Ford"
        string_val: "Nissan"
        string_val: "Chevrolet"
        string_val: "Mercedes"
        string_val: "Mercedes"
        string_val: "Ford"
        string_val: "Ford"
        string_val: "Porsche"
        string_val: "Jeep"
        string_val: "Mercedes"
        string_val: "GMC"
        string_val: "Honda"
        string_val: "Ford"
        string_val: "Chevrolet"
        string_val: "Dodge"
        string_val: "Nissan"
        string_val: "Ford"
        string_val: "Mercedes"
        string_val: "Nissan"
        string_val: "Ford"
        string_val: "Honda"
        string_val: "Lexus"
        string_val: "Nissan"
        string_val: "Ford"
        string_val: "Mercedes"
        string_val: "Dodge"
        string_val: "Nissan"
        string_val: "Ford"
        string_val: "Nissan"
        string_val: "Honda"
        string_val: "Hyundai"
        string_val: "Ford"
        string_val: "Kia"
        string_val: "Jeep"
        string_val: "Ford"
        string_val: "Kia"
        string_val: "Ford"
        string_val: "Nissan"
        string_val: "Nissan"
        string_val: "Ford"
        string_val: "Ford"
        string_val: "Ford"
        string_val: "Chevrolet"
        string_val: "Nissan"
        string_val: "Toyota"
        string_val: "Jeep"
        string_val: "Ford"
        string_val: "Nissan"
        string_val: "Chevrolet"
        string_val: "Ford"
        string_val: "Ford"
        string_val: "Jeep"
        string_val: "Ford"
        string_val: "Nissan"
        string_val: "Honda"
        string_val: "Nissan"
        string_val: "Ford"
        string_val: "Jeep"
        string_val: "Volkswagen"
        string_val: "Toyota"
        string_val: "Ford"
        string_val: "Ford"
        string_val: "Kia"
        string_val: "Ford"
        string_val: "Ford"
        string_val: "Toyota"
        string_val: "Chevrolet"
        string_val: "Honda"
        string_val: "Ford"
        string_val: "Mercedes"
        string_val: "Ford"
        string_val: "Chevrolet"
        string_val: "Nissan"
        string_val: "INFINITI"
        string_val: "Honda"
        string_val: "Honda"
        string_val: "Jeep"
        string_val: "Chevrolet"
        string_val: "Ford"
        string_val: "Jeep"
        string_val: "Kia"
        string_val: "Toyota"
        string_val: "Toyota"
        string_val: "Mercedes"
        string_val: "GMC"
        string_val: "Chevrolet"
        string_val: "Chevrolet"
        string_val: "Toyota"
        string_val: "Jeep"
        string_val: "Nissan"
        string_val: "Chevrolet"
        string_val: "Volkswagen"
        string_val: "Lexus"
        string_val: "Dodge"
        string_val: "Nissan"
        string_val: "Dodge"
        string_val: "Subaru"
        string_val: "Ford"
        string_val: "Toyota"
        string_val: "Toyota"
        string_val: "Land"
        string_val: "Chevrolet"
        string_val: "Nissan"
        string_val: "Ford"
        string_val: "BMW"
        string_val: "Ford"
        string_val: "Ford"
        string_val: "Ford"
        string_val: "Chevrolet"
        string_val: "Chevrolet"
        string_val: "Chevrolet"
        string_val: "Ford"
        string_val: "Lexus"
        string_val: "Ford"
        string_val: "Ford"
        string_val: "Ford"
        string_val: "Toyota"
        string_val: "Volkswagen"
        string_val: "Honda"
        string_val: "Honda"
        string_val: "Ford"
        string_val: "Ford"
        string_val: "Buick"
        string_val: "Hyundai"
        string_val: "Honda"
        string_val: "Ford"
        string_val: "Chevrolet"
        string_val: "Buick"
        string_val: "Hyundai"
        string_val: "Ford"
        string_val: "Ford"
        string_val: "Mercedes"
        string_val: "Ford"
        string_val: "Scion"
        string_val: "Ford"
        string_val: "Ford"
        string_val: "Ford"
        string_val: "Ford"
        string_val: "Honda"
        string_val: "Toyota"
        string_val: "Maybach"
        string_val: "Ford"
        string_val: "Honda"
        string_val: "Mercedes"
        string_val: "Volkswagen"
        string_val: "Honda"
        string_val: "Nissan"
        string_val: "Toyota"
        string_val: "Toyota"
        string_val: "Chevrolet"
        string_val: "Honda"
        string_val: "Ford"
        string_val: "Chevrolet"
        string_val: "Cadillac"
        string_val: "Volkswagen"
        string_val: "Ford"
        string_val: "Toyota"
        string_val: "Ford"
        string_val: "Toyota"
        string_val: "FIAT"
        string_val: "Ford"
        string_val: "Ford"
        string_val: "Ford"
        string_val: "Chevrolet"
        string_val: "GMC"
        string_val: "Volkswagen"
        string_val: "Chevrolet"
      }
    }
  }
}
node {
  name: "normalize_element/component_1"
  op: "Const"
  device: "/device:CPU:0"
  attr {
    key: "_output_shapes"
    value {
      list {
        shape {
          dim {
            size: 5033
          }
        }
      }
    }
  }
  attr {
    key: "dtype"
    value {
      type: DT_STRING
    }
  }
  attr {
    key: "value"
    value {
      tensor {
        dtype: DT_STRING
        tensor_shape {
          dim {
            size: 5033
          }
        }
        string_val: "V-6 Gas Turbocharged"
        string_val: "Inline-6 Gas Turbocharged"
        string_val: "Inline-4 Gas"
        string_val: "V-8 Gas"
        string_val: "Inline-4 Gas"
        string_val: "V-8 Gas"
        string_val: "V-6 Gas"
        string_val: "V-6 Gas Turbocharged"
        string_val: "Inline-6 Gas Turbocharged"
        string_val: "V-6 Gas Turbocharged"
        string_val: "V-6 Gas"
        string_val: "Inline-4 Gas"
        string_val: "Inline-4 Gas Turbocharged"
        string_val: "Inline-4 Gas"
        string_val: "Inline-4 Gas"
        string_val: "Inline-4 Gas"
        string_val: "Inline-4 Gas"
        string_val: "Inline-4 Gas Turbocharged"
        string_val: "V-6 Gas"
        string_val: "Inline-4 Gas Turbocharged"
        string_val: "V-6 Gas Turbocharged"
        string_val: "Inline-4 Gas"
        string_val: "V-6 Gas Turbocharged"
        string_val: "Inline-4 Gas"
        string_val: "Inline-4 Gas Turbocharged"
        string_val: "Inline-4 Gas"
        string_val: "Inline-4 Gas"
        string_val: "V-6 Gas"
        string_val: "V-8 Gas"
        string_val: "Inline-4 Gas"
        string_val: "Inline-4 Gas"
        string_val: "Inline-4 Gas"
        string_val: "V-6 Gas"
        string_val: "V-6 Gas"
        string_val: "V-6 Gas"
        string_val: "Inline-4 Gas Turbocharged"
        string_val: "Inline-4 Gas Turbocharged"
        string_val: "Inline-4 Gas Turbocharged"
        string_val: "Inline-4 Gas"
        string_val: "Inline-4 Gas Turbocharged"
        string_val: "Inline-4 Gas Turbocharged"
        string_val: "V-4 Gas Turbocharged"
        string_val: "Inline-4 Gas Turbocharged"
        string_val: "Inline-4 Gas Turbocharged"
        string_val: "Inline-4 Gas"
        string_val: "V-6 Gas Turbocharged"
…
        key: "T"
        value {
          type: DT_INT64
        }
      }
      attr {
        key: "_output_shapes"
        value {
          list {
            shape {
            }
          }
        }
      }
    }
    node_def {
      name: "zero_fraction/counts_to_fraction/Cast"
      op: "Cast"
      input: "zero_fraction/counts_to_fraction/sub:z:0"
      attr {
        key: "DstT"
        value {
          type: DT_FLOAT
        }
      }
      attr {
        key: "SrcT"
        value {
          type: DT_INT64
        }
      }
      attr {
        key: "Truncate"
        value {
          b: false
        }
      }
      attr {
        key: "_output_shapes"
        value {
          list {
            shape {
            }
          }
        }
      }
    }
    node_def {
      name: "zero_fraction/counts_to_fraction/Cast_1"
      op: "Cast"
      input: "zero_fraction/Size:output:0"
      attr {
        key: "DstT"
        value {
          type: DT_FLOAT
        }
      }
      attr {
        key: "SrcT"
        value {
          type: DT_INT64
        }
      }
      attr {
        key: "Truncate"
        value {
          b: false
        }
      }
      attr {
        key: "_output_shapes"
        value {
          list {
            shape {
            }
          }
        }
      }
    }
    node_def {
      name: "zero_fraction/counts_to_fraction/truediv"
      op: "RealDiv"
      input: "zero_fraction/counts_to_fraction/Cast:y:0"
      input: "zero_fraction/counts_to_fraction/Cast_1:y:0"
      attr {
        key: "T"
        value {
          type: DT_FLOAT
        }
      }
      attr {
        key: "_output_shapes"
        value {
          list {
            shape {
            }
          }
        }
      }
    }
    node_def {
      name: "zero_fraction/fraction"
      op: "Identity"
      input: "zero_fraction/counts_to_fraction/truediv:z:0"
      attr {
        key: "T"
        value {
          type: DT_FLOAT
        }
      }
      attr {
        key: "_output_shapes"
        value {
          list {
            shape {
            }
          }
        }
      }
    }
    node_def {
      name: "Cast"
      op: "Cast"
      input: "cast_zero_fraction_total_size_size"
      attr {
        key: "DstT"
        value {
          type: DT_FLOAT
        }
      }
      attr {
        key: "SrcT"
        value {
          type: DT_INT64
        }
      }
      attr {
        key: "Truncate"
        value {
          b: false
        }
      }
      attr {
        key: "_output_shapes"
        value {
          list {
            shape {
            }
          }
        }
      }
    }
    node_def {
      name: "mul_0"
      op: "Mul"
      input: "zero_fraction/fraction:output:0"
      input: "Cast:y:0"
      attr {
        key: "T"
        value {
          type: DT_FLOAT
        }
      }
    }
    ret {
      key: "mul"
      value: "mul_0:z:0"
    }
    attr {
      key: "_input_shapes"
      value {
        list {
          shape {
          }
          shape {
          }
        }
      }
    }
    arg_attr {
      key: 1
      value {
        attr {
          key: "_output_shapes"
          value {
            list {
              shape {
              }
            }
          }
        }
      }
    }
  }
  function {
    signature {
      name: "global_step_cond_true_55"
      input_arg {
        name: "read_readvariableop_global_step"
        type: DT_RESOURCE
        handle_data {
          dtype: DT_INT64
          shape {
          }
        }
      }
      input_arg {
        name: "placeholder"
        type: DT_INT64
      }
      output_arg {
        name: "identity"
        type: DT_INT64
      }
      is_stateful: true
    }
    node_def {
      name: "Read/ReadVariableOp"
      op: "ReadVariableOp"
      input: "read_readvariableop_global_step"
      attr {
        key: "_output_shapes"
        value {
          list {
            shape {
            }
          }
        }
      }
      attr {
        key: "dtype"
        value {
          type: DT_INT64
        }
      }
    }
    node_def {
      name: "Identity"
      op: "Identity"
      input: "Read/ReadVariableOp:value:0"
      attr {
        key: "T"
        value {
          type: DT_INT64
        }
      }
      attr {
        key: "_output_shapes"
        value {
          list {
            shape {
            }
          }
        }
      }
    }
    ret {
      key: "identity"
      value: "Identity:output:0"
    }
    attr {
      key: "_input_shapes"
      value {
        list {
          shape {
          }
          shape {
          }
        }
      }
    }
    arg_attr {
      key: 1
      value {
        attr {
          key: "_output_shapes"
          value {
            list {
              shape {
              }
            }
          }
        }
      }
    }
  }
  function {
    signature {
      name: "zero_fraction_total_zero_zero_count_3_true_1186"
      input_arg {
        name: "placeholder"
        type: DT_RESOURCE
      }
      input_arg {
        name: "placeholder_1"
        type: DT_INT64
      }
      output_arg {
        name: "const"
        type: DT_FLOAT
      }
    }
    node_def {
      name: "Const"
      op: "Const"
      attr {
        key: "_output_shapes"
        value {
          list {
            shape {
            }
          }
        }
      }
      attr {
        key: "dtype"
        value {
          type: DT_FLOAT
        }
      }
      attr {
        key: "value"
        value {
          tensor {
            dtype: DT_FLOAT
            tensor_shape {
            }
            float_val: 0.0
          }
        }
      }
    }
    ret {
      key: "const"
      value: "Const:output:0"
    }
    attr {
      key: "_input_shapes"
      value {
        list {
          shape {
          }
          shape {
          }
        }
      }
    }
    arg_attr {
      key: 1
      value {
        attr {
          key: "_output_shapes"
          value {
            list {
              shape {
              }
            }
          }
        }
      }
    }
  }
  function {
    signature {
      name: "zero_fraction_cond_false_1068"
      input_arg {
        name: "count_nonzero_notequal_zero_fraction_readvariableop"
        type: DT_FLOAT
      }
      output_arg {
        name: "count_nonzero_nonzero_count"
        type: DT_INT64
      }
    }
    node_def {
      name: "count_nonzero/zeros"
      op: "Const"
      attr {
        key: "_output_shapes"
        value {
          list {
            shape {
            }
          }
        }
      }
      attr {
        key: "dtype"
        value {
          type: DT_FLOAT
        }
      }
      attr {
        key: "value"
        value {
          tensor {
            dtype: DT_FLOAT
            tensor_shape {
            }
            float_val: 0.0
          }
        }
      }
    }
    node_def {
      name: "count_nonzero/NotEqual"
      op: "NotEqual"
      input: "count_nonzero_notequal_zero_fraction_readvariableop"
      input: "count_nonzero/zeros:output:0"
      attr {
        key: "T"
        value {
          type: DT_FLOAT
        }
      }
      attr {
        key: "_output_shapes"
        value {
          list {
            shape {
              dim {
                size: 43
              }
              dim {
                size: 1
              }
            }
          }
        }
      }
      attr {
        key: "incompatible_shape_error"
        value {
          b: true
        }
      }
    }
    node_def {
      name: "count_nonzero/Cast"
      op: "Cast"
      input: "count_nonzero/NotEqual:z:0"
      attr {
        key: "DstT"
        value {
          type: DT_INT64
        }
      }
      attr {
        key: "SrcT"
        value {
          type: DT_BOOL
        }
      }
      attr {
        key: "Truncate"
        value {
          b: false
        }
      }
      attr {
        key: "_output_shapes"
        value {
          list {
            shape {
              dim {
                size: 43
              }
              dim {
                size: 1
              }
            }
          }
        }
      }
    }
    node_def {
      name: "count_nonzero/Const"
      op: "Const"
      attr {
        key: "_output_shapes"
        value {
          list {
            shape {
              dim {
                size: 2
              }
            }
          }
        }
      }
      attr {
        key: "dtype"
        value {
          type: DT_INT32
        }
      }
      attr {
        key: "value"
        value {
          tensor {
            dtype: DT_INT32
            tensor_shape {
              dim {
                size: 2
              }
            }
            tensor_content: "\000\000\000\000\001\000\000\000"
          }
        }
      }
    }
    node_def {
      name: "count_nonzero/nonzero_count"
      op: "Sum"
      input: "count_nonzero/Cast:y:0"
      input: "count_nonzero/Const:output:0"
      attr {
        key: "T"
        value {
          type: DT_INT64
        }
      }
      attr {
        key: "Tidx"
        value {
          type: DT_INT32
        }
      }
      attr {
        key: "_output_shapes"
        value {
          list {
            shape {
            }
          }
        }
      }
      attr {
        key: "keep_dims"
        value {
          b: false
        }
      }
    }
    ret {
      key: "count_nonzero_nonzero_count"
      value: "count_nonzero/nonzero_count:output:0"
    }
    attr {
      key: "_input_shapes"
      value {
        list {
          shape {
            dim {
              size: 43
            }
            dim {
              size: 1
            }
          }
        }
      }
    }
    arg_attr {
      value {
        attr {
          key: "_output_shapes"
          value {
            list {
              shape {
                dim {
                  size: 43
                }
                dim {
                  size: 1
                }
              }
            }
          }
        }
      }
    }
  }
  function {
    signature {
      name: "zero_fraction_total_zero_zero_count_4_false_1230"
      input_arg {
        name: "zero_fraction_readvariableop_linear_linear_model_fuel_type_weights"
        type: DT_RESOURCE
        handle_data {
          dtype: DT_FLOAT
          shape {
            dim {
              size: 3
            }
            dim {
              size: 1
            }
          }
        }
      }
      input_arg {
        name: "cast_zero_fraction_total_size_size_4"
        type: DT_INT64
      }
      output_arg {
        name: "mul"
        type: DT_FLOAT
      }
      is_stateful: true
    }
    node_def {
      name: "zero_fraction/ReadVariableOp"
      op: "ReadVariableOp"
      input: "zero_fraction_readvariableop_linear_linear_model_fuel_type_weights"
      attr {
        key: "_output_shapes"
        value {
          list {
            shape {
              dim {
                size: 3
              }
              dim {
                size: 1
              }
            }
          }
        }
      }
      attr {
        key: "dtype"
        value {
          type: DT_FLOAT
        }
      }
    }
    node_def {
      name: "zero_fraction/Size"
      op: "Const"
      attr {
        key: "_output_shapes"
        value {
          list {
            shape {
            }
          }
        }
      }
      attr {
        key: "dtype"
        value {
          type: DT_INT64
        }
      }
      attr {
        key: "value"
        value {
          tensor {
            dtype: DT_INT64
            tensor_shape {
            }
            int64_val: 3
          }
        }
      }
    }
    node_def {
      name: "zero_fraction/LessEqual/y"
      op: "Const"
      attr {
        key: "_output_shapes"
        value {
          list {
            shape {
            }
          }
        }
      }
      attr {
        key: "dtype"
        value {
          type: DT_INT64
        }
      }
      attr {
        key: "value"
        value {
          tensor {
            dtype: DT_INT64
            tensor_shape {
            }
            int64_val: 2147483647
          }
        }
      }
    }
    node_def {
      name: "zero_fraction/LessEqual"
      op: "LessEqual"
      input: "zero_fraction/Size:output:0"
      input: "zero_fraction/LessEqual/y:output:0"
      attr {
        key: "T"
        value {
          type: DT_INT64
        }
      }
      attr {
        key: "_output_shapes"
        value {
          list {
            shape {
            }
          }
        }
      }
    }
    node_def {
      name: "zero_fraction/cond"
      op: "StatelessIf"
      input: "zero_fraction/LessEqual:z:0"
      input: "zero_fraction/ReadVariableOp:value:0"
      attr {
        key: "Tcond"
        value {
          type: DT_BOOL
        }
      }
      attr {
        key: "Tin"
        value {
          list {
            type: DT_FLOAT
          }
        }
      }
      attr {
        key: "Tout"
        value {
          list {
            type: DT_INT64
          }
        }
      }
      attr {
        key: "_lower_using_switch_merge"
        value {
          b: true
        }
      }
      attr {
        key: "_output_shapes"
        value {
          list {
            shape {
            }
          }
        }
      }
      attr {
        key: "_read_only_resource_inputs"
        value {
          list {
          }
        }
      }
      attr {
        key: "else_branch"
        value {
          func {
            name: "zero_fraction_cond_false_1240"
          }
        }
      }
      attr {
        key: "output_shapes"
        value {
          list {
            shape {
            }
          }
        }
      }
      attr {
        key: "then_branch"
        value {
          func {
            name: "zero_fraction_cond_true_1239"
          }
        }
      }
    }
    node_def {
      name: "zero_fraction/cond/Identity"
      op: "Identity"
      input: "zero_fraction/cond:output:0"
      attr {
        key: "T"
        value {
          type: DT_INT64
        }
      }
      attr {
        key: "_output_shapes"
        value {
          list {
            shape {
            }
          }
        }
      }
    }
    node_def {
      name: "zero_fraction/counts_to_fraction/sub"
      op: "Sub"
      input: "zero_fraction/Size:output:0"
      input: "zero_fraction/cond/Identity:output:0"
      attr {
        key: "T"
        value {
          type: DT_INT64
        }
      }
      attr {
        key: "_output_shapes"
        value {
          list {
            shape {
            }
          }
        }
      }
    }
    node_def {
      name: "zero_fraction/counts_to_fraction/Cast"
      op: "Cast"
      input: "zero_fraction/counts_to_fraction/sub:z:0"
      attr {
        key: "DstT"
        value {
          type: DT_FLOAT
        }
      }
      attr {
        key: "SrcT"
        value {
          type: DT_INT64
        }
      }
      attr {
        key: "Truncate"
        value {
          b: false
        }
      }
      attr {
        key: "_output_shapes"
        value {
          list {
            shape {
            }
          }
        }
      }
    }
    node_def {
      name: "zero_fraction/counts_to_fraction/Cast_1"
      op: "Cast"
      input: "zero_fraction/Size:output:0"
      attr {
        key: "DstT"
        value {
          type: DT_FLOAT
        }
      }
      attr {
        key: "SrcT"
        value {
          type: DT_INT64
        }
      }
      attr {
        key: "Truncate"
        value {
          b: false
        }
      }
      attr {
        key: "_output_shapes"
        value {
          list {
            shape {
            }
          }
        }
      }
    }
    node_def {
      name: "zero_fraction/counts_to_fraction/truediv"
      op: "RealDiv"
      input: "zero_fraction/counts_to_fraction/Cast:y:0"
      input: "zero_fraction/counts_to_fraction/Cast_1:y:0"
      attr {
        key: "T"
        value {
          type: DT_FLOAT
        }
      }
      attr {
        key: "_output_shapes"
        value {
          list {
            shape {
            }
          }
        }
      }
    }
    node_def {
      name: "zero_fraction/fraction"
      op: "Identity"
      input: "zero_fraction/counts_to_fraction/truediv:z:0"
      attr {
        key: "T"
        value {
          type: DT_FLOAT
        }
      }
      attr {
        key: "_output_shapes"
        value {
          list {
            shape {
            }
          }
        }
      }
    }
    node_def {
      name: "Cast"
      op: "Cast"
      input: "cast_zero_fraction_total_size_size_4"
      attr {
        key: "DstT"
        value {
          type: DT_FLOAT
        }
      }
      attr {
        key: "SrcT"
        value {
          type: DT_INT64
        }
      }
      attr {
        key: "Truncate"
        value {
          b: false
        }
      }
      attr {
        key: "_output_shapes"
        value {
          list {
            shape {
            }
          }
        }
      }
    }
    node_def {
      name: "mul_0"
      op: "Mul"
      input: "zero_fraction/fraction:output:0"
      input: "Cast:y:0"
      attr {
        key: "T"
        value {
          type: DT_FLOAT
        }
      }
    }
    ret {
      key: "mul"
      value: "mul_0:z:0"
    }
    attr {
      key: "_input_shapes"
      value {
        list {
          shape {
          }
          shape {
          }
        }
      }
    }
    arg_attr {
      key: 1
      value {
        attr {
          key: "_output_shapes"
          value {
            list {
              shape {
              }
            }
          }
        }
      }
    }
  }
  function {
    signature {
      name: "zero_fraction_cond_false_1240"
      input_arg {
        name: "count_nonzero_notequal_zero_fraction_readvariableop"
        type: DT_FLOAT
      }
      output_arg {
        name: "count_nonzero_nonzero_count"
        type: DT_INT64
      }
    }
    node_def {
      name: "count_nonzero/zeros"
      op: "Const"
      attr {
        key: "_output_shapes"
        value {
          list {
            shape {
            }
          }
        }
      }
      attr {
        key: "dtype"
        value {
          type: DT_FLOAT
        }
      }
      attr {
        key: "value"
        value {
          tensor {
            dtype: DT_FLOAT
            tensor_shape {
            }
            float_val: 0.0
          }
        }
      }
    }
    node_def {
      name: "count_nonzero/NotEqual"
      op: "NotEqual"
      input: "count_nonzero_notequal_zero_fraction_readvariableop"
      input: "count_nonzero/zeros:output:0"
      attr {
        key: "T"
        value {
          type: DT_FLOAT
        }
      }
      attr {
        key: "_output_shapes"
        value {
          list {
            shape {
              dim {
                size: 3
              }
              dim {
                size: 1
              }
            }
          }
        }
      }
      attr {
        key: "incompatible_shape_error"
        value {
          b: true
        }
      }
    }
    node_def {
      name: "count_nonzero/Cast"
      op: "Cast"
      input: "count_nonzero/NotEqual:z:0"
      attr {
        key: "DstT"
        value {
          type: DT_INT64
        }
      }
      attr {
        key: "SrcT"
        value {
          type: DT_BOOL
        }
      }
      attr {
        key: "Truncate"
        value {
          b: false
        }
      }
      attr {
        key: "_output_shapes"
        value {
          list {
            shape {
              dim {
                size: 3
              }
              dim {
                size: 1
              }
            }
          }
        }
      }
    }
    node_def {
      name: "count_nonzero/Const"
      op: "Const"
      attr {
        key: "_output_shapes"
        value {
          list {
            shape {
              dim {
                size: 2
              }
            }
          }
        }
      }
      attr {
        key: "dtype"
        value {
          type: DT_INT32
        }
      }
      attr {
        key: "value"
        value {
          tensor {
            dtype: DT_INT32
            tensor_shape {
              dim {
                size: 2
              }
            }
            tensor_content: "\000\000\000\000\001\000\000\000"
          }
        }
      }
    }
    node_def {
      name: "count_nonzero/nonzero_count"
      op: "Sum"
      input: "count_nonzero/Cast:y:0"
      input: "count_nonzero/Const:output:0"
      attr {
        key: "T"
        value {
          type: DT_INT64
        }
      }
      attr {
        key: "Tidx"
        value {
          type: DT_INT32
        }
      }
      attr {
        key: "_output_shapes"
        value {
          list {
            shape {
            }
          }
        }
      }
      attr {
        key: "keep_dims"
        value {
          b: false
        }
      }
    }
    ret {
      key: "count_nonzero_nonzero_count"
      value: "count_nonzero/nonzero_count:output:0"
    }
    attr {
      key: "_input_shapes"
      value {
        list {
          shape {
            dim {
              size: 3
            }
            dim {
              size: 1
            }
          }
        }
      }
    }
    arg_attr {
      value {
        attr {
          key: "_output_shapes"
          value {
            list {
              shape {
                dim {
                  size: 3
                }
                dim {
                  size: 1
                }
              }
            }
          }
        }
      }
    }
  }
  function {
    signature {
      name: "zero_fraction_total_zero_zero_count_3_false_1187"
      input_arg {
        name: "zero_fraction_readvariableop_linear_linear_model_exterior_color_weights"
        type: DT_RESOURCE
        handle_data {
          dtype: DT_FLOAT
          shape {
            dim {
              size: 526
            }
            dim {
              size: 1
            }
          }
        }
      }
      input_arg {
        name: "cast_zero_fraction_total_size_size_3"
        type: DT_INT64
      }
      output_arg {
        name: "mul"
        type: DT_FLOAT
      }
      is_stateful: true
    }
    node_def {
      name: "zero_fraction/ReadVariableOp"
      op: "ReadVariableOp"
      input: "zero_fraction_readvariableop_linear_linear_model_exterior_color_weights"
      attr {
        key: "_output_shapes"
        value {
          list {
            shape {
              dim {
                size: 526
              }
              dim {
                size: 1
              }
            }
          }
        }
      }
      attr {
        key: "dtype"
        value {
          type: DT_FLOAT
        }
      }
    }
    node_def {
      name: "zero_fraction/Size"
      op: "Const"
      attr {
        key: "_output_shapes"
        value {
          list {
            shape {
            }
          }
        }
      }
      attr {
        key: "dtype"
        value {
          type: DT_INT64
        }
      }
      attr {
        key: "value"
        value {
          tensor {
            dtype: DT_INT64
            tensor_shape {
            }
            int64_val: 526
          }
        }
      }
    }
    node_def {
      name: "zero_fraction/LessEqual/y"
      op: "Const"
      attr {
        key: "_output_shapes"
        value {
          list {
            shape {
            }
          }
        }
      }
      attr {
        key: "dtype"
        value {
          type: DT_INT64
        }
      }
      attr {
        key: "value"
        value {
          tensor {
            dtype: DT_INT64
            tensor_shape {
            }
            int64_val: 2147483647
          }
        }
      }
    }
    node_def {
      name: "zero_fraction/LessEqual"
      op: "LessEqual"
      input: "zero_fraction/Size:output:0"
      input: "zero_fraction/LessEqual/y:output:0"
      attr {
        key: "T"
        value {
          type: DT_INT64
        }
      }
      attr {
        key: "_output_shapes"
        value {
          list {
            shape {
            }
          }
        }
      }
    }
    node_def {
      name: "zero_fraction/cond"
      op: "StatelessIf"
      input: "zero_fraction/LessEqual:z:0"
      input: "zero_fraction/ReadVariableOp:value:0"
      attr {
        key: "Tcond"
        value {
          type: DT_BOOL
        }
      }
      attr {
        key: "Tin"
        value {
          list {
            type: DT_FLOAT
          }
        }
      }
      attr {
        key: "Tout"
        value {
          list {
            type: DT_INT64
          }
        }
      }
      attr {
        key: "_lower_using_switch_merge"
        value {
          b: true
        }
      }
      attr {
        key: "_output_shapes"
        value {
          list {
            shape {
            }
          }
        }
      }
      attr {
        key: "_read_only_resource_inputs"
        value {
          list {
          }
        }
      }
      attr {
        key: "else_branch"
        value {
          func {
            name: "zero_fraction_cond_false_1197"
          }
        }
      }
      attr {
        key: "output_shapes"
        value {
          list {
            shape {
            }
          }
        }
      }
      attr {
        key: "then_branch"
        value {
          func {
            name: "zero_fraction_cond_true_1196"
          }
        }
      }
    }
    node_def {
      name: "zero_fraction/cond/Identity"
      op: "Identity"
      input: "zero_fraction/cond:output:0"
      attr {
        key: "T"
        value {
          type: DT_INT64
        }
      }
      attr {
        key: "_output_shapes"
        value {
          list {
            shape {
            }
          }
        }
      }
    }
    node_def {
      name: "zero_fraction/counts_to_fraction/sub"
      op: "Sub"
      input: "zero_fraction/Size:output:0"
      input: "zero_fraction/cond/Identity:output:0"
      attr {
        key: "T"
        value {
          type: DT_INT64
        }
      }
      attr {
        key: "_output_shapes"
        value {
          list {
            shape {
            }
          }
        }
      }
    }
    node_def {
      name: "zero_fraction/counts_to_fraction/Cast"
      op: "Cast"
      input: "zero_fraction/counts_to_fraction/sub:z:0"
      attr {
        key: "DstT"
        value {
          type: DT_FLOAT
        }
      }
      attr {
        key: "SrcT"
        value {
          type: DT_INT64
        }
      }
      attr {
        key: "Truncate"
        value {
          b: false
        }
      }
      attr {
        key: "_output_shapes"
        value {
          list {
            shape {
            }
          }
        }
      }
    }
    node_def {
      name: "zero_fraction/counts_to_fraction/Cast_1"
      op: "Cast"
      input: "zero_fraction/Size:output:0"
      attr {
        key: "DstT"
        value {
          type: DT_FLOAT
        }
      }
      attr {
        key: "SrcT"
        value {
          type: DT_INT64
        }
      }
      attr {
        key: "Truncate"
        value {
          b: false
        }
      }
      attr {
        key: "_output_shapes"
        value {
          list {
            shape {
            }
          }
        }
      }
    }
    node_def {
      name: "zero_fraction/counts_to_fraction/truediv"
      op: "RealDiv"
      input: "zero_fraction/counts_to_fraction/Cast:y:0"
      input: "zero_fraction/counts_to_fraction/Cast_1:y:0"
      attr {
        key: "T"
        value {
          type: DT_FLOAT
        }
      }
      attr {
        key: "_output_shapes"
        value {
          list {
            shape {
            }
          }
        }
      }
    }
    node_def {
      name: "zero_fraction/fraction"
      op: "Identity"
      input: "zero_fraction/counts_to_fraction/truediv:z:0"
      attr {
        key: "T"
        value {
          type: DT_FLOAT
        }
      }
      attr {
        key: "_output_shapes"
        value {
          list {
            shape {
            }
          }
        }
      }
    }
    node_def {
      name: "Cast"
      op: "Cast"
      input: "cast_zero_fraction_total_size_size_3"
      attr {
        key: "DstT"
        value {
          type: DT_FLOAT
        }
      }
      attr {
        key: "SrcT"
        value {
          type: DT_INT64
        }
      }
      attr {
        key: "Truncate"
        value {
          b: false
        }
      }
      attr {
        key: "_output_shapes"
        value {
          list {
            shape {
            }
          }
        }
      }
    }
    node_def {
      name: "mul_0"
      op: "Mul"
      input: "zero_fraction/fraction:output:0"
      input: "Cast:y:0"
      attr {
        key: "T"
        value {
          type: DT_FLOAT
        }
      }
    }
    ret {
      key: "mul"
      value: "mul_0:z:0"
    }
    attr {
      key: "_input_shapes"
      value {
        list {
          shape {
          }
          shape {
          }
        }
      }
    }
    arg_attr {
      key: 1
      value {
        attr {
          key: "_output_shapes"
          value {
            list {
              shape {
              }
            }
          }
        }
      }
    }
  }
  function {
    signature {
      name: "zero_fraction_cond_true_1196"
      input_arg {
        name: "count_nonzero_notequal_zero_fraction_readvariableop"
        type: DT_FLOAT
      }
      output_arg {
        name: "cast"
        type: DT_INT64
      }
    }
    node_def {
      name: "count_nonzero/zeros"
      op: "Const"
      attr {
        key: "_output_shapes"
        value {
          list {
            shape {
            }
          }
        }
      }
      attr {
        key: "dtype"
        value {
          type: DT_FLOAT
        }
      }
      attr {
        key: "value"
        value {
          tensor {
            dtype: DT_FLOAT
            tensor_shape {
            }
            float_val: 0.0
          }
        }
      }
    }
    node_def {
      name: "count_nonzero/NotEqual"
      op: "NotEqual"
      input: "count_nonzero_notequal_zero_fraction_readvariableop"
      input: "count_nonzero/zeros:output:0"
      attr {
        key: "T"
        value {
          type: DT_FLOAT
        }
      }
      attr {
        key: "_output_shapes"
        value {
          list {
            shape {
              dim {
                size: 526
              }
              dim {
                size: 1
              }
            }
          }
        }
      }
      attr {
        key: "incompatible_shape_error"
        value {
          b: true
        }
      }
    }
    node_def {
      name: "count_nonzero/Cast"
      op: "Cast"
      input: "count_nonzero/NotEqual:z:0"
      attr {
        key: "DstT"
        value {
          type: DT_INT32
        }
      }
      attr {
        key: "SrcT"
        value {
          type: DT_BOOL
        }
      }
      attr {
        key: "Truncate"
        value {
          b: false
        }
      }
      attr {
        key: "_output_shapes"
        value {
          list {
            shape {
              dim {
                size: 526
              }
              dim {
                size: 1
              }
            }
          }
        }
      }
    }
    node_def {
      name: "count_nonzero/Const"
      op: "Const"
      attr {
        key: "_output_shapes"
        value {
          list {
            shape {
              dim {
                size: 2
              }
            }
          }
        }
      }
      attr {
        key: "dtype"
        value {
          type: DT_INT32
        }
      }
      attr {
        key: "value"
        value {
          tensor {
            dtype: DT_INT32
            tensor_shape {
              dim {
                size: 2
              }
            }
            tensor_content: "\000\000\000\000\001\000\000\000"
          }
        }
      }
    }
    node_def {
      name: "count_nonzero/nonzero_count"
      op: "Sum"
      input: "count_nonzero/Cast:y:0"
      input: "count_nonzero/Const:output:0"
      attr {
        key: "T"
        value {
          type: DT_INT32
        }
      }
      attr {
        key: "Tidx"
        value {
          type: DT_INT32
        }
      }
      attr {
        key: "_output_shapes"
        value {
          list {
            shape {
            }
          }
        }
      }
      attr {
        key: "keep_dims"
        value {
          b: false
        }
      }
    }
    node_def {
      name: "Cast"
      op: "Cast"
      input: "count_nonzero/nonzero_count:output:0"
      attr {
        key: "DstT"
        value {
          type: DT_INT64
        }
      }
      attr {
        key: "SrcT"
        value {
          type: DT_INT32
        }
      }
      attr {
        key: "Truncate"
        value {
          b: false
        }
      }
      attr {
        key: "_output_shapes"
        value {
          list {
            shape {
            }
          }
        }
      }
    }
    ret {
      key: "cast"
      value: "Cast:y:0"
    }
    attr {
      key: "_input_shapes"
      value {
        list {
          shape {
            dim {
              size: 526
            }
            dim {
              size: 1
            }
          }
        }
      }
    }
    arg_attr {
      value {
        attr {
          key: "_output_shapes"
          value {
            list {
              shape {
                dim {
                  size: 526
                }
                dim {
                  size: 1
                }
              }
            }
          }
        }
      }
    }
  }
  function {
    signature {
      name: "zero_fraction_total_zero_zero_count_5_false_1273"
      input_arg {
        name: "zero_fraction_readvariableop_linear_linear_model_mileage_weights"
        type: DT_RESOURCE
        handle_data {
          dtype: DT_FLOAT
          shape {
            dim {
              size: 1
            }
            dim {
              size: 1
            }
          }
        }
      }
      input_arg {
        name: "cast_zero_fraction_total_size_size_5"
        type: DT_INT64
      }
      output_arg {
        name: "mul"
        type: DT_FLOAT
      }
      is_stateful: true
    }
    node_def {
      name: "zero_fraction/ReadVariableOp"
      op: "ReadVariableOp"
      input: "zero_fraction_readvariableop_linear_linear_model_mileage_weights"
      attr {
        key: "_output_shapes"
        value {
          list {
            shape {
              dim {
                size: 1
              }
              dim {
                size: 1
              }
            }
          }
        }
      }
      attr {
        key: "dtype"
        value {
          type: DT_FLOAT
        }
      }
    }
    node_def {
      name: "zero_fraction/Size"
      op: "Const"
      attr {
        key: "_output_shapes"
        value {
          list {
            shape {
            }
          }
        }
      }
      attr {
        key: "dtype"
        value {
          type: DT_INT64
        }
      }
      attr {
        key: "value"
        value {
          tensor {
            dtype: DT_INT64
            tensor_shape {
            }
            int64_val: 1
          }
        }
      }
    }
    node_def {
      name: "zero_fraction/LessEqual/y"
      op: "Const"
      attr {
        key: "_output_shapes"
        value {
          list {
            shape {
            }
          }
        }
      }
      attr {
        key: "dtype"
        value {
          type: DT_INT64
        }
      }
      attr {
        key: "value"
        value {
          tensor {
            dtype: DT_INT64
            tensor_shape {
            }
            int64_val: 2147483647
          }
        }
      }
    }
    node_def {
      name: "zero_fraction/LessEqual"
      op: "LessEqual"
      input: "zero_fraction/Size:output:0"
      input: "zero_fraction/LessEqual/y:output:0"
      attr {
        key: "T"
        value {
          type: DT_INT64
        }
      }
      attr {
        key: "_output_shapes"
        value {
          list {
            shape {
            }
          }
        }
      }
    }
    node_def {
      name: "zero_fraction/cond"
      op: "StatelessIf"
      input: "zero_fraction/LessEqual:z:0"
      input: "zero_fraction/ReadVariableOp:value:0"
      attr {
        key: "Tcond"
        value {
          type: DT_BOOL
        }
      }
      attr {
        key: "Tin"
        value {
          list {
            type: DT_FLOAT
          }
        }
      }
      attr {
        key: "Tout"
        value {
          list {
            type: DT_INT64
          }
        }
      }
      attr {
        key: "_lower_using_switch_merge"
        value {
          b: true
        }
      }
      attr {
        key: "_output_shapes"
        value {
          list {
            shape {
            }
          }
        }
      }
      attr {
        key: "_read_only_resource_inputs"
        value {
          list {
          }
        }
      }
      attr {
        key: "else_branch"
        value {
          func {
            name: "zero_fraction_cond_false_1283"
          }
        }
      }
      attr {
        key: "output_shapes"
        value {
          list {
            shape {
            }
          }
        }
      }
      attr {
        key: "then_branch"
        value {
          func {
            name: "zero_fraction_cond_true_1282"
          }
        }
      }
    }
    node_def {
      name: "zero_fraction/cond/Identity"
      op: "Identity"
      input: "zero_fraction/cond:output:0"
      attr {
        key: "T"
        value {
          type: DT_INT64
        }
      }
      attr {
        key: "_output_shapes"
        value {
          list {
            shape {
            }
          }
        }
      }
    }
    node_def {
      name: "zero_fraction/counts_to_fraction/sub"
      op: "Sub"
      input: "zero_fraction/Size:output:0"
      input: "zero_fraction/cond/Identity:output:0"
      attr {
        key: "T"
        value {
          type: DT_INT64
        }
      }
      attr {
        key: "_output_shapes"
        value {
          list {
            shape {
            }
          }
        }
      }
    }
    node_def {
      name: "zero_fraction/counts_to_fraction/Cast"
      op: "Cast"
      input: "zero_fraction/counts_to_fraction/sub:z:0"
      attr {
        key: "DstT"
        value {
          type: DT_FLOAT
        }
      }
      attr {
        key: "SrcT"
        value {
          type: DT_INT64
        }
      }
      attr {
        key: "Truncate"
        value {
          b: false
        }
      }
      attr {
        key: "_output_shapes"
        value {
          list {
            shape {
            }
          }
        }
      }
    }
    node_def {
      name: "zero_fraction/counts_to_fraction/Cast_1"
      op: "Cast"
      input: "zero_fraction/Size:output:0"
      attr {
        key: "DstT"
        value {
          type: DT_FLOAT
        }
      }
      attr {
        key: "SrcT"
        value {
          type: DT_INT64
        }
      }
      attr {
        key: "Truncate"
        value {
          b: false
        }
      }
      attr {
        key: "_output_shapes"
        value {
          list {
            shape {
            }
          }
        }
      }
    }
    node_def {
      name: "zero_fraction/counts_to_fraction/truediv"
      op: "RealDiv"
      input: "zero_fraction/counts_to_fraction/Cast:y:0"
      input: "zero_fraction/counts_to_fraction/Cast_1:y:0"
      attr {
        key: "T"
        value {
          type: DT_FLOAT
        }
      }
      attr {
        key: "_output_shapes"
        value {
          list {
            shape {
            }
          }
        }
      }
    }
    node_def {
      name: "zero_fraction/fraction"
      op: "Identity"
      input: "zero_fraction/counts_to_fraction/truediv:z:0"
      attr {
        key: "T"
        value {
          type: DT_FLOAT
        }
      }
      attr {
        key: "_output_shapes"
        value {
          list {
            shape {
            }
          }
        }
      }
    }
    node_def {
      name: "Cast"
      op: "Cast"
      input: "cast_zero_fraction_total_size_size_5"
      attr {
        key: "DstT"
        value {
          type: DT_FLOAT
        }
      }
      attr {
        key: "SrcT"
        value {
          type: DT_INT64
        }
      }
      attr {
        key: "Truncate"
        value {
          b: false
        }
      }
      attr {
        key: "_output_shapes"
        value {
          list {
            shape {
            }
          }
        }
      }
    }
    node_def {
      name: "mul_0"
      op: "Mul"
      input: "zero_fraction/fraction:output:0"
      input: "Cast:y:0"
      attr {
        key: "T"
        value {
          type: DT_FLOAT
        }
      }
    }
    ret {
      key: "mul"
      value: "mul_0:z:0"
    }
    attr {
      key: "_input_shapes"
      value {
        list {
          shape {
          }
          shape {
          }
        }
      }
    }
    arg_attr {
      key: 1
      value {
        attr {
          key: "_output_shapes"
          value {
            list {
              shape {
              }
            }
          }
        }
      }
    }
  }
  function {
    signature {
      name: "zero_fraction_total_zero_zero_count_5_true_1272"
      input_arg {
        name: "placeholder"
        type: DT_RESOURCE
      }
      input_arg {
        name: "placeholder_1"
        type: DT_INT64
      }
      output_arg {
        name: "const"
        type: DT_FLOAT
      }
    }
    node_def {
      name: "Const"
      op: "Const"
      attr {
        key: "_output_shapes"
        value {
          list {
            shape {
            }
          }
        }
      }
      attr {
        key: "dtype"
        value {
          type: DT_FLOAT
        }
      }
      attr {
        key: "value"
        value {
          tensor {
            dtype: DT_FLOAT
            tensor_shape {
            }
            float_val: 0.0
          }
        }
      }
    }
    ret {
      key: "const"
      value: "Const:output:0"
    }
    attr {
      key: "_input_shapes"
      value {
        list {
          shape {
          }
          shape {
          }
        }
      }
    }
    arg_attr {
      key: 1
      value {
        attr {
          key: "_output_shapes"
          value {
            list {
              shape {
              }
            }
          }
        }
      }
    }
  }
  function {
    signature {
      name: "zero_fraction_total_zero_zero_count_7_true_1358"
      input_arg {
        name: "placeholder"
        type: DT_RESOURCE
      }
      input_arg {
        name: "placeholder_1"
        type: DT_INT64
      }
      output_arg {
        name: "const"
        type: DT_FLOAT
      }
    }
    node_def {
      name: "Const"
      op: "Const"
      attr {
        key: "_output_shapes"
        value {
          list {
            shape {
            }
          }
        }
      }
      attr {
        key: "dtype"
        value {
          type: DT_FLOAT
        }
      }
      attr {
        key: "value"
        value {
          tensor {
            dtype: DT_FLOAT
            tensor_shape {
            }
            float_val: 0.0
          }
        }
      }
    }
    ret {
      key: "const"
      value: "Const:output:0"
    }
    attr {
      key: "_input_shapes"
      value {
        list {
          shape {
          }
          shape {
          }
        }
      }
    }
    arg_attr {
      key: 1
      value {
        attr {
          key: "_output_shapes"
          value {
            list {
              shape {
              }
            }
          }
        }
      }
    }
  }
  function {
    signature {
      name: "zero_fraction_total_zero_zero_count_true_1057"
      input_arg {
        name: "placeholder"
        type: DT_RESOURCE
      }
      input_arg {
        name: "placeholder_1"
        type: DT_INT64
      }
      output_arg {
        name: "const"
        type: DT_FLOAT
      }
    }
    node_def {
      name: "Const"
      op: "Const"
      attr {
        key: "_output_shapes"
        value {
          list {
            shape {
            }
          }
        }
      }
      attr {
        key: "dtype"
        value {
          type: DT_FLOAT
        }
      }
      attr {
        key: "value"
        value {
          tensor {
            dtype: DT_FLOAT
            tensor_shape {
            }
            float_val: 0.0
          }
        }
      }
    }
    ret {
      key: "const"
      value: "Const:output:0"
    }
    attr {
      key: "_input_shapes"
      value {
        list {
          shape {
          }
          shape {
          }
        }
      }
    }
    arg_attr {
      key: 1
      value {
        attr {
          key: "_output_shapes"
          value {
            list {
              shape {
              }
            }
          }
        }
      }
    }
  }
  function {
    signature {
      name: "zero_fraction_cond_true_1067"
      input_arg {
        name: "count_nonzero_notequal_zero_fraction_readvariableop"
        type: DT_FLOAT
      }
      output_arg {
        name: "cast"
        type: DT_INT64
      }
    }
    node_def {
      name: "count_nonzero/zeros"
      op: "Const"
      attr {
        key: "_output_shapes"
        value {
          list {
            shape {
            }
          }
        }
      }
      attr {
        key: "dtype"
        value {
          type: DT_FLOAT
        }
      }
      attr {
        key: "value"
        value {
          tensor {
            dtype: DT_FLOAT
            tensor_shape {
            }
            float_val: 0.0
          }
        }
      }
    }
    node_def {
      name: "count_nonzero/NotEqual"
      op: "NotEqual"
      input: "count_nonzero_notequal_zero_fraction_readvariableop"
      input: "count_nonzero/zeros:output:0"
      attr {
        key: "T"
        value {
          type: DT_FLOAT
        }
      }
      attr {
        key: "_output_shapes"
        value {
          list {
            shape {
              dim {
                size: 43
              }
              dim {
                size: 1
              }
            }
          }
        }
      }
      attr {
        key: "incompatible_shape_error"
        value {
          b: true
        }
      }
    }
    node_def {
      name: "count_nonzero/Cast"
      op: "Cast"
      input: "count_nonzero/NotEqual:z:0"
      attr {
        key: "DstT"
        value {
          type: DT_INT32
        }
      }
      attr {
        key: "SrcT"
        value {
          type: DT_BOOL
        }
      }
      attr {
        key: "Truncate"
        value {
          b: false
        }
      }
      attr {
        key: "_output_shapes"
        value {
          list {
            shape {
              dim {
                size: 43
              }
              dim {
                size: 1
              }
            }
          }
        }
      }
    }
    node_def {
      name: "count_nonzero/Const"
      op: "Const"
      attr {
        key: "_output_shapes"
        value {
          list {
            shape {
              dim {
                size: 2
              }
            }
          }
        }
      }
      attr {
        key: "dtype"
        value {
          type: DT_INT32
        }
      }
      attr {
        key: "value"
        value {
          tensor {
            dtype: DT_INT32
            tensor_shape {
              dim {
                size: 2
              }
            }
            tensor_content: "\000\000\000\000\001\000\000\000"
          }
        }
      }
    }
    node_def {
      name: "count_nonzero/nonzero_count"
      op: "Sum"
      input: "count_nonzero/Cast:y:0"
      input: "count_nonzero/Const:output:0"
      attr {
        key: "T"
        value {
          type: DT_INT32
        }
      }
      attr {
        key: "Tidx"
        value {
          type: DT_INT32
        }
      }
      attr {
        key: "_output_shapes"
        value {
          list {
            shape {
            }
          }
        }
      }
      attr {
        key: "keep_dims"
        value {
          b: false
        }
      }
    }
    node_def {
      name: "Cast"
      op: "Cast"
      input: "count_nonzero/nonzero_count:output:0"
      attr {
        key: "DstT"
        value {
          type: DT_INT64
        }
      }
      attr {
        key: "SrcT"
        value {
          type: DT_INT32
        }
      }
      attr {
        key: "Truncate"
        value {
          b: false
        }
      }
      attr {
        key: "_output_shapes"
        value {
          list {
            shape {
            }
          }
        }
      }
    }
    ret {
      key: "cast"
      value: "Cast:y:0"
    }
    attr {
      key: "_input_shapes"
      value {
        list {
          shape {
            dim {
              size: 43
            }
            dim {
              size: 1
            }
          }
        }
      }
    }
    arg_attr {
      value {
        attr {
          key: "_output_shapes"
          value {
            list {
              shape {
                dim {
                  size: 43
                }
                dim {
                  size: 1
                }
              }
            }
          }
        }
      }
    }
  }
}
versions {
  producer: 898
  min_consumer: 12
}
